learned_model_weights/old_working_weights/CVAE_weights.pth (torch, 160966 bytes, 14 tensors)

encoder.0.weight f4 [128, 7]
000000 11 74 bd 3d 56 d1 bf be 23 c1 8f be c1 be f7 3d
       0.092506535 -0.37464398 -0.2807704 0.1209693
000010 60 dd 42 3e 92 85 35 be 0e 8e 3e be e4 bb 64 3c
       0.1902976 -0.17726734 -0.18608877 0.013960812
000020 f7 0f da be fb 35 97 3e 2e 82 d2 be d3 de f2 bd
       -0.42590305 0.2953337 -0.41114944 -0.118589066
000030 9d d3 a1 be f6 40 1d be e5 ae ae 3e 2c b4 45 3e
       -0.3160676 -0.15356812 0.3411781 0.19307011
000040 e0 84 aa 3e 58 ad 53 be 52 0d 8c bd 1b 2e f2 3d
       0.333045 -0.20671594 -0.06838478 0.118252
000050 2a 6d b2 3d 5c 1d e8 3d ec 65 bd 3e 9d 52 a4 3d
       0.08712228 0.11333725 0.36991823 0.0802357
000060 de 6b 4e 3c 23 9b 46 be e9 95 ca 3d e2 9b db bb
       0.01259896 -0.19395117 0.09891874 -0.0067019323
000070 2d 03 6d be 0a 79 a0 bd c2 6f ab be 65 a6 2c 3e
       -0.23145743 -0.07835586 -0.33483702 0.1686035
000080 d3 75 29 3d 29 0c fa bd fa 3b e3 bd 94 a0 08 3e
       0.04137213 -0.122093506 -0.11095424 0.13342506
000090 d8 40 a9 bd 1f 66 3f 3e 5a 78 a8 be 9b 44 32 3d
       -0.08264321 0.186913 -0.3290432 0.04352246
0000a0 97 f6 c7 bd ce b3 16 be ef 70 de 3e 13 41 04 be
       -0.0976383 -0.14717028 0.43445536 -0.12915449
0000b0 80 31 7e 3d ec eb fe 3d 8a 5a f3 3d 27 ab 97 3e
       0.062058926 0.12447342 0.11882503 0.29622766
0000c0 2a f2 25 3e 72 44 8b 3e db f0 95 3e 7e 2a 07 3e
       0.1620566 0.27200657 0.2928532 0.13199803
0000d0 94 bf e8 be 08 bb 90 bd a1 34 0f be 02 22 e1 bc
       -0.45458663 -0.070669234 -0.1398492 -0.027482037
0000e0 46 f4 00 3e 4c f9 81 bd 69 12 09 be a0 93 16 3e
       0.12593183 -0.06346378 -0.13385929 0.14704752
0000f0 90 98 de 3c 63 8e a2 3e d4 9f 34 be 99 e1 8e be
       0.027172357 0.31749257 -0.17639095 -0.27906492
000100 ce c6 14 3e 85 9a a8 3d 45 de 02 3c 49 98 11 3e
       0.14528963 0.08232597 0.0079875635 0.14218248
000110 40 1c b1 3e e3 d7 f0 bc c2 ed b2 3e ea f3 1f bc
       0.34591866 -0.029399818 0.3494702 -0.0097627435
000120 ff c9 9c bd d5 af 5a 3e ec 51 92 bc 9b 34 8f 3d
       -0.07655715 0.21356137 -0.017861329 0.069924556
000130 e8 c1 71 3e 10 4a d8 bd 57 f8 8c 3d f9 c7 19 bd
       0.23609126 -0.10561001 0.068833046 -0.037544224
000140 cc 0e 14 be 40 11 fb 3b 9c be c4 3e 03 8a 0e bd
       -0.1445877 0.0076619685 0.38426673 -0.034799587
000150 ec 20 9f be 9d cc 61 3d fe 4d 8a 3e 7a a5 34 bc
       -0.31079805 0.055126775 0.27012628 -0.011025781
000160 72 e8 e0 3c 41 2c 5a be d9 2a 29 be 7d fd 72 3e
       0.027454589 -0.21305944 -0.16520251 0.2372951
000170 0e b0 a5 3e e5 ce 94 be 79 85 a3 3e 2d 69 39 3e
       0.32360882 -0.29064098 0.3193777 0.18106528
000180 1e 36 09 3e 0c b9 93 3d e4 ae be bd 66 77 45 be
       0.1339955 0.07213029 -0.093107015 -0.19283828
000190 ba 2c 18 3e 4e 84 28 3e 2d c4 17 be c3 5d 24 bc
       0.14860812 0.1645672 -0.14820929 -0.01003212
0001a0 e4 f0 71 3e 7b 97 80 bd 9d 2a 2b be 02 0d dd bd
       0.23627049 -0.062788926 -0.16715474 -0.10793497
0001b0 33 98 bd be 99 c7 ed 3d 62 2a ba bd 1e 0b 5e bc
       -0.3703018 0.11610336 -0.09090115 -0.013552455
0001c0 f5 e0 b1 3d 67 fc ae 3e 8c dc 95 3e 6b 4f a1 3e
       0.08685485 0.34176943 0.29269826 0.31505904
0001d0 7a 99 e6 3d e6 2e 19 3e 30 c9 75 3e 1a 46 aa 3e
       0.11259742 0.14959297 0.24002528 0.33256608
0001e0 53 65 97 3e 6e 7c 81 be 1a 11 a7 bd 1d 19 55 bd
       0.29569492 -0.25290245 -0.08157559 -0.052025903
0001f0 4d 8b 49 be e1 66 cc bd 15 d2 e6 3d 57 17 83 be
       -0.19682045 -0.0998056 0.11270539 -0.25603744
000200 66 0e b9 be 0b f2 cb be ae 0a fa 3c 60 4f d1 bd
       -0.36143798 -0.39833102 0.03052267 -0.10220218
000210 d6 ce d8 bd df e5 f5 3d 5e 84 4a be 54 08 ba 3e
       -0.10586326 0.12006735 -0.19777057 0.3633448
000220 4b cd 97 3d 1f 4d 2f be 43 7b 5a 3e 66 d1 16 3e
       0.074122034 -0.17119263 0.21336083 0.14728317
000230 f4 42 2e be 26 6d a4 3c 19 6b 35 be 15 8f d9 3e
       -0.17017728 0.020071577 -0.17716636 0.42491975
000240 41 da da 3b 63 14 85 be 38 f9 b3 bd 97 a1 2c be
       0.00667885 -0.25992116 -0.08787769 -0.16858517
000250 c8 47 b7 3e cb dd 03 be 3f 99 65 be b9 e3 96 3c
       0.35796952 -0.12877576 -0.2242174 0.018419133
000260 50 e7 2d 3a 54 bb da bd 13 d1 5c be cb fd 9f be
       0.00066338945 -0.10680261 -0.2156413 -0.31248316
000270 fb 4f e2 be a0 13 2c 3e 0b 65 2f 3e 7f c2 05 3e
       -0.44201645 0.16804361 0.17128389 0.13062476
000280 d4 ec 45 bb bc 96 92 be a7 ee 06 be 63 32 cf 3e
       -0.0030200975 -0.28630626 -0.13176976 0.4046813
000290 b6 d4 9c 3e 39 07 a9 3d d0 c5 76 be f2 04 90 bc
       0.30631036 0.08253331 -0.24098897 -0.017580483
0002a0 52 f2 a7 3e bc 59 f2 be 1f 17 57 3e c2 be 29 3e
       0.32802063 -0.47334087 0.21004914 0.16576675
0002b0 76 af 06 3d d5 5e 1e 3e 0f 6e 05 3e f0 82 1d bd
       0.032882176 0.15465863 0.13030265 -0.03845495
0002c0 97 75 a3 3e a1 95 b1 be 48 35 1b 3e ac b9 ff bd
       0.3192565 -0.3468447 0.15157044 -0.12486586
0002d0 92 cc 91 ba 79 4b 0f 3e b3 2f 3e be fa 6d cc 3e
       -0.0011123589 0.13993634 -0.18572883 0.39927655
0002e0 1b 69 8a be e4 54 67 3e fc 4c 53 3e 26 c3 e8 bd
       -0.27033314 0.22590977 0.20634836 -0.113653466
0002f0 aa 9e 61 bd 5b e5 ab 3e 4f 47 63 3e 27 39 bb 3e
       -0.055082954 0.33573422 0.22195171 0.3656704
000300 45 a5 8e 3e 7d bc 10 be 2b 92 c0 bd 1d f1 c6 bd
       0.27860466 -0.14134403 -0.09402879 -0.097139575
000310 9d ae 62 3e c5 84 43 3e fb 2b da be a1 04 ba bd
       0.22136922 0.19093616 -0.4261168 -0.09082914
000320 64 61 3a bd e7 dd 7e bd e0 02 04 3d 3e 2e a7 bb
       -0.045503035 -0.06222334 0.032229304 -0.005101948
000330 52 e3 2f 3e b1 92 e9 3e 0c 3f 86 3c 06 58 0f 3d
       0.1717656 0.4561973 0.016387485 0.034996055
000340 c0 46 f5 3d 13 18 2a 3e a9 dc c2 be b8 c1 96 3e
       0.11976385 0.16610746 -0.38058975 0.2944467
000350 61 ff 01 be 68 03 4b be 8b 07 f9 3d ff 86 62 be
       -0.12695076 -0.19825518 0.12159642 -0.2212181
000360 e1 56 73 be 10 44 94 be a7 4b 46 3e c8 f3 dc 3e
       -0.2376361 -0.28958178 0.19364797 0.4315474
000370 67 99 d5 3d d2 96 4a bd 59 ce ce bb b9 d1 26 bc
       0.1042965 -0.04946024 -0.0063112197 -0.010181838
000380 65 80 9f 3e d5 32 fd 3c b2 bf 10 be 34 61 35 3e
       0.31152645 0.030908028 -0.14135626 0.17712861
000390 44 f5 79 bb cf 80 40 be c2 83 eb bd 29 3f cd be
       -0.0038140574 -0.18799137 -0.1149974 -0.4008725
0003a0 01 48 83 3d 03 80 0a 3e 7d fa 54 3e 07 83 09 be
       0.06410218 0.13525395 0.20798679 -0.13428889
0003b0 b0 2a d6 3d d9 e8 56 bc 98 1c fe bd 55 6b af be
       0.10457361 -0.013117039 -0.124077976 -0.34261575
0003c0 e5 45 8b be 97 13 e7 bc 46 8e 20 3e d2 ad b3 3b
       -0.27201763 -0.028207583 0.15679273 0.0054833675
0003d0 71 14 1f 3e 14 b6 85 be fc d4 9c 3e da 70 9a be
       0.15535142 -0.26115477 0.30631244 -0.30164224
0003e0 82 54 60 3e 0e e0 bc 3b 55 2d 10 3e 90 f1 1c be
       0.21907237 0.005764014 0.14079793 -0.15326524
0003f0 34 04 03 3d a8 f4 90 bd 7c 62 76 3e df cc 90 3d
       0.03198643 -0.070779145 0.24061006 0.07070326

encoder.0.bias f4 [128]
000000 5d 5d b1 3e 35 ec bc be 15 c4 21 be f7 0b 7a 3e
       0.34641543 -0.36898962 -0.15797456 0.24418627
000010 0a a3 7d 3e d9 36 a4 3e d3 0d 00 3c 55 a2 8e 3d
       0.24769226 0.32073095 0.007815796 0.06964556
000020 4e 58 7c 3e bd 00 2e 3d 24 ad 6b 3e f3 c2 ab bd
       0.2464306 0.042481173 0.23015267 -0.08386793
000030 ba 25 57 3e f1 27 6b 3e 7e e0 a3 3e 98 3b a8 3e
       0.21010485 0.22964455 0.3200721 0.32857966
000040 cb 86 64 bd 38 00 53 3d 8c fd 73 be e9 51 6a 3e
       -0.05579261 0.05151388 -0.23827189 0.22882809
000050 bd b7 04 be 68 c5 12 be a9 00 3c 3e ba 61 92 be
       -0.12960716 -0.14333117 0.18359627 -0.28590184
000060 71 cd 7d be af 88 bf 3e 9b 9d a6 3b c1 86 fa 39
       -0.24785401 0.3740897 0.005084706 0.00047784115
000070 e4 1c 5e be 21 c7 75 3e be 36 66 bd a8 91 f2 3d
       -0.21690708 0.24001743 -0.05620455 0.11844188
000080 d1 ca 41 bd df 2e e0 3d af 7e 9d be ef 86 2c 3e
       -0.04731256 0.1094644 -0.30760714 0.16848348
000090 f6 0d a7 bd b8 49 b0 be c7 e1 de bd ec 78 6c be
       -0.0815696 -0.34431243 -0.10882907 -0.23093003
0000a0 22 0a d8 bc 7d bd 60 be 16 d5 97 be 76 0c 8e bd
       -0.02637202 -0.21947284 -0.2965476 -0.069359705
0000b0 4b 2c 22 be 62 13 30 3e 3c 12 62 3e ba 38 68 3b
       -0.15837209 0.17194894 0.22077268 0.0035434202
0000c0 9b 15 4b be 61 cb 66 3e 05 2f ff 3d 9c 4b a0 bc
       -0.1983246 0.2253852 0.1246014 -0.019567303
0000d0 5f 0f 35 bd 64 53 cc bd b0 29 9f 3e c9 5c 03 bd
       -0.044204112 -0.09976843 0.31086493 -0.03207091
0000e0 ac 08 1f 3e ca 09 16 3e ff 69 46 3e c8 a6 85 3e
       0.15530652 0.14652172 0.19376372 0.26103806
0000f0 af 11 55 3e d0 20 5e be bd 20 b1 be 4f e0 53 be
       0.20807527 -0.21692204 -0.3459529 -0.20691036
000100 62 d9 72 be 6f e7 40 be 93 03 46 be 52 fd 6c be
       -0.23715737 -0.18838285 -0.19337301 -0.23143509
000110 35 02 37 be ec f6 8a be f4 f7 a8 bd ad d8 39 3d
       -0.17871936 -0.2714151 -0.08250418 0.045372654
000120 d2 b8 6e 3e 88 41 41 be b3 96 ad 3e a4 26 62 be
       0.23312691 -0.18872654 0.33904037 -0.22085053
000130 59 77 0c 3c 14 44 3a 3d ed 08 a2 bd 2d d2 98 3e
       0.008573377 0.04547508 -0.07911859 0.2984785
000140 6d 5d 59 bd d6 89 f4 bd 87 76 98 bd ca 66 18 3e
       -0.053067613 -0.119403526 -0.07444482 0.14882961
000150 13 9d 87 3e f7 7e 8a 3d 24 f0 24 be 8a 6a 0f be
       0.26487026 0.06762498 -0.16107231 -0.14005485
000160 a1 4b 85 be 8b 74 bb 3d f4 5b d0 bd 76 13 59 be
       -0.26034263 0.09153088 -0.10173789 -0.2119883
000170 57 a5 98 3e 9a c6 1b be 59 24 3d bd af 19 bc bd
       0.29813644 -0.15212479 -0.046177242 -0.09184586
000180 69 45 df 3d 21 f0 86 be ac e9 22 be b5 65 b1 bd
       0.10901911 -0.2635508 -0.15909451 -0.08661977
000190 0f e0 8a 3e 2b 79 17 3e 4e e2 9d bd c4 59 47 be
       0.27124068 0.14792316 -0.0770918 -0.19467837
0001a0 00 8e b0 3e 10 56 d1 bd c9 76 af 3e 4e 3f 42 be
       0.34483337 -0.10221493 0.34270313 -0.18969461
0001b0 a7 62 5e 3e 7a 21 af 3e 62 1a e9 bd fe 62 6a be
       0.2171732 0.34205228 -0.11381985 -0.22889325
0001c0 07 92 ba 3e ea 04 93 be a0 61 9a be 82 02 22 bd
       0.36439535 -0.28714687 -0.30152607 -0.039553173
0001d0 55 c8 8b be e7 41 f2 bb cd 05 bb bd fe be 07 3d
       -0.2730128 -0.00739311 -0.09131966 0.03314113
0001e0 ed dd 75 be 9c d8 22 be e9 63 85 be 84 80 88 3e
       -0.24010439 -0.15902942 -0.26052788 0.2666055
0001f0 1a aa c7 bc 2c 1a 37 3e 3e 25 e9 3d 48 55 7a 3e
       -0.024373103 0.17881078 0.113840565 0.24446595

encoder.3.weight f4 [128, 128]
000000 84 1c 4f 3c f0 4b 93 3c 1b 8e 32 3d b0 79 31 3d
       0.012641076 0.017980546 0.043592554 0.04332894
000010 00 24 8b 3c b0 95 81 3d c4 2f 03 3d 11 80 66 bb
       0.01698494 0.06327379 0.032027975 -0.0035171548
000020 7e 1c 95 3d 06 59 d0 bc 88 8c 85 3d ea 3a 4d 3c
       0.07280825 -0.025433075 0.06520945 0.012526253
000030 80 a7 3c be 30 aa 22 bd de 2f 3e bb 16 46 f0 bb
       -0.18423271 -0.039713085 -0.002902023 -0.0073325736
000040 33 6b ff bc 5a 8c b2 3c b0 0e bf 3b e9 a7 fd bc
       -0.031179046 0.02179544 0.0058306083 -0.030963855
000050 ac 4c a8 bc 3a d9 db bb 56 1b c6 3a 42 60 2a be
       -0.020544372 -0.006709245 0.0015114348 -0.16638282
000060 9e ea 2d 3c 75 db 31 bd bb 3a 0c bd 85 82 51 bd
       0.010615019 -0.04342218 -0.034235697 -0.051149864
000070 c7 52 2c 3d 53 eb 31 bd d3 09 78 bd 56 ac 0a be
       0.04207113 -0.043437313 -0.060556244 -0.13542303
000080 38 a6 b7 bc ab d1 d0 bd f3 2c 7b 3d c2 4e 30 3d
       -0.022418126 -0.10196241 0.061322164 0.04304386
000090 e6 c5 98 bb 2f 10 25 3d 25 9d 08 3d d7 12 1c 3b
       -0.004662263 0.040298637 0.03335299 0.002381494
0000a0 f2 d0 c2 3d 07 df 37 3d a1 db ce bc b3 9e a4 bc
       0.095125094 0.04489043 -0.025251212 -0.020095205
0000b0 da 91 2a bd 2e 0b 54 bd 79 a2 97 bd 8e 99 81 bd
       -0.041643 -0.051768474 -0.07404036 -0.06328116
0000c0 7b b2 b7 bd 18 81 b5 bc 7d 7e e5 bd 35 98 78 3c
       -0.08969589 -0.022156283 -0.11205766 0.015173008
0000d0 a8 07 84 bd 92 61 ae 3d f3 37 18 3d 1a 47 f1 bb
       -0.06446773 0.08514704 0.037162732 -0.0073632123
0000e0 e8 91 ba 3d 86 f9 bb bc 7c 4b 9a 3d 03 10 bb 3c
       0.09109861 -0.02294613 0.07533929 0.022834783
0000f0 d7 b8 47 bd 3f 31 02 be 41 58 0c 3d 4a 6a 5a bc
       -0.04876026 -0.12714098 0.034263853 -0.013331005
000100 09 7a 9f bb 22 f8 48 b9 8a f5 81 3d c2 69 71 bd
       -0.0048668426 -0.00019165923 0.06345661 -0.05893875
000110 2a 93 c0 bd 8e 1a d4 bc bc 2c e3 bc 21 0c 0e 3d
       -0.09403069 -0.025891569 -0.027731292 0.034679536
000120 16 d9 b8 3d 53 16 5f 3d 68 a6 e3 3d 7c bf 5d 3d
       0.09025781 0.05446465 0.11115724 0.05413769
000130 84 da 61 bd 77 39 46 3d 6f c2 97 3c 64 5f 3f 3c
       -0.055140033 0.048394646 0.01852533 0.011680458
000140 15 ec f3 bb 69 03 dc bc 92 3b 5c bd dc 25 cc 3c
       -0.0074439147 -0.026857095 -0.05376775 0.024920397
000150 d1 b6 d3 3c a0 2d 7d bc 04 b7 53 bd 65 d2 c8 3d
       0.02584401 -0.015452772 -0.05168821 0.098057546
000160 cf c9 62 3d 88 dd 80 3b 57 a4 c2 39 fd c2 26 bc
       0.05536824 0.0039326586 0.00037125006 -0.010178325
000170 da d1 3c bb 7b 34 36 be 0d a5 87 bc 0d 52 76 bd
       -0.0028811605 -0.17793457 -0.016558195 -0.060136843
000180 73 27 84 3d 3e 94 e3 3c c6 9c aa bd d1 cf 86 bd
       0.06452837 0.027780648 -0.083306834 -0.065826066
000190 06 d8 fe bc 86 ec 1a 3d 15 cc 05 bd be df 01 bc
       -0.031108867 0.037823223 -0.03266533 -0.007926879
0001a0 77 1b 3c bd c1 cc a3 bc b2 0a 30 bd 7a 06 36 3d
       -0.04592463 -0.019995095 -0.04297895 0.04443977
0001b0 ee b0 25 3d 70 9e 0b 3a 0d 38 33 3d 78 be 17 be
       0.040451936 0.0005326038 0.043754626 -0.14818752
0001c0 2f 98 80 3d 28 70 80 3c 0a d2 a9 bd ad 21 a4 3c
       0.06279027 0.01567848 -0.08292015 0.02003559
0001d0 b7 d5 8c 3d a5 67 27 3d 83 92 bc bd 69 2e 99 bc
       0.068767 0.040870328 -0.092076324 -0.018698888
0001e0 22 cc b2 bd 07 2e e1 3c 6b e9 b1 3c 0f 1c 64 bd
       -0.087303415 0.027487768 0.021717748 -0.05569082
0001f0 20 a6 00 bc 74 05 62 3d d9 22 1e 3c f0 1b 45 bb
       -0.007852107 0.05518098 0.009651863 -0.0030076467
000200 fa 5b 14 bd b4 18 84 3d 4f 4d 91 bc 2e 14 a0 3d
       -0.03622053 0.06450024 -0.017737059 0.07816349
000210 c1 eb 7d 3c e7 a4 1c 3d c9 6e 25 bd 7c c4 db 3c
       0.015498103 0.0382432 -0.040388856 0.02682709
000220 63 e6 81 bd 56 08 a8 bb f7 0d 62 3c 7d 1a f8 bc
       -0.06342771 -0.005127947 0.013797275 -0.030286068
000230 f0 a6 2b 3d d8 3f 94 3d 28 f7 43 bd 91 f0 12 3d
       0.04190725 0.0723874 -0.04784313 0.035873953
000240 96 7d 2f 3d bf e5 8d 3d 1f 03 0b 3d 0d 64 7c bd
       0.042844377 0.06928586 0.033938523 -0.061618853
000250 65 19 01 bc 15 e0 09 bd 52 3c 5a 3c 9a ce f8 bd
       -0.00787959 -0.033660967 0.013320046 -0.12148781
000260 b3 35 ac bd b9 a3 68 bd 40 d3 98 3d ad 6b 8a 3d
       -0.0840868 -0.056796763 0.07462168 0.06758819
000270 c6 b3 bc 3d 2e 5c eb 3c e8 0e f4 3c 29 4e 86 bd
       0.092139766 0.028730478 0.029792264 -0.065578766
000280 e8 5d bb 3d 4b d6 27 3d bc 93 3c 3d 43 00 2f bd
       0.091487706 0.04097585 0.046039328 -0.04272486
000290 85 31 9c bd 0d 4b c3 bc 58 c5 2d 3d b0 f4 8a bc
       -0.076266326 -0.023839498 0.04242453 -0.01696238
0002a0 6d 25 90 3d 0b df ed 3b ab b4 c8 3c 6c 66 0e bd
       0.070383884 0.007259255 0.024500212 -0.034765646
0002b0 b5 47 e4 3c 95 d9 16 bd b7 b4 9f bd db a6 8c bd
       0.027866224 -0.036828596 -0.077981405 -0.06867763
0002c0 bf ae 8b bd c5 b3 56 3d 43 2a 40 3c 0d 7d 0d bd
       -0.068204395 0.052417535 0.011728826 -0.034543086
0002d0 a9 0d 41 be f9 89 a4 bc 5d 96 9d 3d 2b 84 c6 3c
       -0.18852867 -0.020085322 0.07694695 0.024232944
0002e0 54 3c 5a bd 6d 08 c6 bc 98 bb b3 3d 4b 98 22 3d
       -0.05328019 -0.02417394 0.08776015 0.03969602
0002f0 49 8d 39 3b da 03 6e be a1 9e 85 bd 99 e9 17 bd
       0.0028312972 -0.23243657 -0.06524397 -0.03708801
000300 af f1 16 3d 88 b4 05 be 97 7b 7b 3c 67 d6 fa 3c
       0.03685158 -0.13057148 0.01534929 0.030619813
000310 20 90 ce bb 5a 56 5b bd 95 b5 bf bd 7a aa 07 3c
       -0.006303802 -0.05354915 -0.09360806 0.008280391
000320 46 f0 d7 bd 7f 9e 6b bd 50 25 10 bd 75 15 05 bd
       -0.105438754 -0.0575242 -0.035191834 -0.032491166
000330 86 7c 95 3c 07 fc 2a bd 37 61 d4 3d db 7c 76 3d
       0.018247854 -0.04174426 0.10370105 0.060177665
000340 89 57 20 3c 68 d0 a9 bc e0 75 1b 3c 16 71 b5 3d
       0.009786495 -0.020729259 0.009488553 0.0885946
000350 a5 37 7d 3d 73 1f 1b bd c4 f0 0b bd b5 57 e2 3d
       0.061820645 -0.03787179 -0.03416516 0.11051885
000360 3c 77 60 3d cb e1 6f bd 71 c1 ca 3c a6 6d 65 bb
       0.05480121 -0.058564942 0.024750443 -0.0035007983
000370 f7 95 b9 bc c3 5b 2f bc 15 1c ba 3d 59 b4 cf 3c
       -0.022654517 -0.01070303 0.090873875 0.025354551
000380 f1 35 ae 3d ab 05 96 bd db f3 c7 bc 87 79 cd 3c
       0.08506382 -0.073253 -0.024408272 0.025082363
000390 68 d3 8a 3d f5 47 27 bd 2c 6b b7 3c be b8 99 3d
       0.06778604 -0.040840108 0.02238997 0.0750594
0003a0 f6 30 99 bc ee 4e 82 bd d8 cb 12 bd eb 98 48 3d
       -0.018700104 -0.06362711 -0.03583893 0.04897396
0003b0 b7 16 9e 3d de 48 b1 bb 31 52 c8 bc 5f d6 3f 3c
       0.07719176 -0.005410298 -0.024453254 0.011708825
0003c0 04 53 0d bc 60 85 58 bd 73 2c fd 3b a1 1d 2e bd
       -0.0086257495 -0.05286157 0.007726246 -0.042508725
0003d0 0f 86 83 bd ba 74 01 bd 11 18 f9 3c e9 b8 8a 3d
       -0.06422054 -0.03160546 0.030406984 0.0677355
0003e0 e6 ce 35 3b 8d 7a a1 3d b6 ac 14 3d c6 c0 cc bc
       0.002774173 0.07884703 0.036297522 -0.024994265
0003f0 0e 0e 94 bc 82 e5 5b 3d b3 ad bc bd c5 e6 9e bd
       -0.018073108 0.053685673 -0.09212818 -0.077588595

encoder.3.bias f4 [128]
000000 18 a7 c0 3d 3b 0d 82 3d 9b d8 00 3e ba cf c1 3d
       0.094068706 0.0635018 0.12582628 0.09463449
000010 ab 43 e4 3d 9c e9 30 3d d7 7e 20 3e 99 c5 23 3e
       0.11145719 0.043191537 0.15673386 0.15993346
000020 be 32 8c 3e 5c 1f 14 3e 30 ee d3 3d 13 20 d4 3d
       0.27382463 0.14465088 0.10348165 0.1035768
000030 ed ea 37 3c ac 6b 4c 3c 5e 9a 38 3e 0a e5 3d 3e
       0.011225444 0.012476843 0.18027636 0.18544403
000040 50 34 f3 bb a7 aa 61 3c 6a 5e 50 3e f1 e7 b3 3d
       -0.0074220076 0.013773597 0.20348516 0.08784474
000050 18 66 70 3d 9c c5 68 3d fc ec fa bc 85 be 88 3d
       0.058691114 0.05682908 -0.030630581 0.06676964
000060 bf d7 15 bc 59 c7 1b 3e d0 a0 e7 3d ec 08 fa 3d
       -0.009145676 0.15212764 0.113099694 0.12208733
000070 f7 66 c2 3a 00 14 3a 3e 72 ea ee 3d 10 7c 79 3d
       0.0014831711 0.18171692 0.11665811 0.06090933
000080 f3 b2 99 3d 1c f7 20 3c 6b 68 08 3e 97 86 ac 3d
       0.07504835 0.0098245405 0.13321082 0.084241085
000090 87 e2 f5 bd 9d f9 31 3e e1 fb 8d 3d 2b 84 33 3e
       -0.12006097 0.17380376 0.06932808 0.17530887
0000a0 1f e7 3f 3e 39 7c 82 3d 68 c4 23 3d be fb f2 3d
       0.1874051 0.0637135 0.03998223 0.11864422
0000b0 a6 70 63 3e e5 10 43 3d 70 46 08 3e 95 f6 9b 3b
       0.2221094 0.047623534 0.1330812 0.0047596195
0000c0 bc 1d cb 3c 23 80 d9 3d f4 b5 3e bc 6a ee 45 3e
       0.024794452 0.10620143 -0.011640061 0.19329229
0000d0 40 0b 29 3e 3c f2 20 3e 36 ea 63 3d d0 3a 8a 3e
       0.16508198 0.15717405 0.055643283 0.26997995
0000e0 ce 8d 06 3d ac ff 47 3d 14 4d 00 bd 64 c9 af 3c
       0.03285008 0.048827812 -0.031323507 0.021458335
0000f0 45 63 8e 3c e3 a4 44 3c 70 33 ab 3d c3 e1 cb 3d
       0.01738132 0.012002203 0.0835942 0.0995517
000100 14 d3 5e 3e 50 17 99 3c 8a 57 15 bc 1c 8c 20 3e
       0.21760207 0.018687874 -0.009115109 0.15678447
000110 32 5f 85 3e d8 2c 2f 3e f5 67 8c 3d 56 ea 8a 3d
       0.2604919 0.1710695 0.06855766 0.06782977
000120 3a 5d 44 3d 5c 1b 0f 3e 5d 14 f0 3d 2e 13 42 3e
       0.04794047 0.1397528 0.11722634 0.18952629
000130 5e d3 41 bb 4e a5 83 bc a5 c7 8b bc bb 1e ca 3d
       -0.0029575448 -0.016070034 -0.017062971 0.098691426
000140 f5 7d 87 bd 58 d8 99 3d a8 97 46 3e 38 ac 9b 3d
       -0.06615821 0.075119674 0.1939379 0.076012075
000150 be cb fa 3d 2d 5d 4b 3d 5c fe a4 3d 3e d0 f0 3d
       0.12245892 0.049649406 0.08056328 0.11758469
000160 ff d3 a6 bd 3a 2f 45 3e d3 bd c6 3d 5d 32 9d bb
       -0.08145904 0.19256297 0.09704175 -0.0047972635
000170 1f 52 0b 3e 91 98 61 3e 8f 9b cf 3b 8c d5 17 3e
       0.13605545 0.22030856 0.0063356827 0.14827555
000180 21 72 bf bb df d6 69 3e 66 1b 9a 3d 43 a4 ec 3d
       -0.0058424626 0.22835873 0.07524757 0.11554768
000190 bc 31 2d 3d 87 f2 dd 3d 13 76 1c 3d 5b 5d 9a bd
       0.04228376 0.10837274 0.03819854 -0.075373374
0001a0 20 72 c4 3d d3 fe 9b 3d e7 43 4e 3e fb 32 81 3e
       0.0959208 0.07616963 0.2014309 0.25234208
0001b0 20 46 c6 3d ff cd 06 3e c8 5e 04 3e 95 a9 1f 3e
       0.09681344 0.13164519 0.12926781 0.15592034
0001c0 11 95 48 3e 42 ec e7 3c c4 b2 8c 3d e9 cb b8 bc
       0.19588114 0.028310899 0.06870034 -0.02255817
0001d0 c3 c6 0d 3e 1a 84 0d 3e 96 68 b1 3d 7d 17 9a 3d
       0.13845353 0.13819924 0.08662526 0.07524011
0001e0 34 b1 04 3e c9 ee d2 3d 25 80 4e 3e 7d bf e0 3d
       0.12958223 0.10299451 0.20166071 0.109740235
0001f0 bb f4 88 3e 87 58 1f be 92 ba 78 3e 28 29 ae 3c
       0.26749215 -0.15561114 0.24289921 0.02125986

fc_mu.weight f4 [10, 128]
000000 19 2d 5b bd 0d ad ae 3c 0a bd ca bd a6 3c 7e 3d
       -0.053509805 0.021322751 -0.098993376 0.062069558
000010 b9 11 05 3d e7 40 85 bc 6f ba 92 3d 81 4d 7f bd
       0.032487605 -0.0162663 0.07164466 -0.062329773
000020 ee 81 3a bd 55 5f 24 3d 75 9c b8 3d 24 1d 9a 3d
       -0.045534067 0.04012998 0.09014217 0.075250894
000030 2a 03 1e 3e d5 09 22 be 83 47 e6 3c a4 9e a3 bd
       0.15430894 -0.15824063 0.028110271 -0.07989243
000040 99 83 63 3d e3 41 1c 3d e4 f4 5d 3d 96 1d e0 bd
       0.055545423 0.038148772 0.054188624 -0.10943143
000050 a9 ba 09 bb 22 60 19 3d 2f 0b 18 bd 82 26 bc 3d
       -0.00210158 0.037445195 -0.03712004 0.09187032
000060 c6 76 e3 3d e7 f1 32 bc 34 29 8c bd 99 00 28 3c
       0.111066386 -0.010921932 -0.06843796 0.010254049
000070 ef bc 28 3d 70 f4 4d 3d 91 08 66 bd 90 76 4e ba
       0.041195806 0.050281942 -0.056160513 -0.00078759436
000080 52 59 d2 bd 34 42 88 3d b0 f1 5b 3c 2a 60 37 bd
       -0.10270943 0.06653252 0.013424322 -0.044769444
000090 a9 97 bf 3b 38 24 81 bd f7 b0 93 3d d2 77 69 bd
       0.0058469367 -0.06305736 0.07211488 -0.056999035
0000a0 e2 f6 cd bd 6c e8 8e b9 08 9e 31 3d ad 5d 2b bd
       -0.10056855 -0.00027257518 0.0433636 -0.041837383
0000b0 d6 02 77 bd e8 f1 ae 3d 91 a7 e4 bd 3a cc 6d 3c
       -0.06030544 0.08542234 -0.11164773 0.014514023
0000c0 5e 0c 73 3c 40 07 bc ba 19 19 41 be ea d4 88 3d
       0.014834492 -0.0014345422 -0.1885723 0.06681235
0000d0 15 f7 b8 bd e5 5e 89 bc 0f 47 b7 bc 66 2d c7 bc
       -0.09031502 -0.016768882 -0.02237275 -0.02431364
0000e0 f9 53 d8 bd 72 2c 6b 3d 2f 94 0d 3d cb fa 9c bd
       -0.105628915 0.057415433 0.034565147 -0.076650225
0000f0 1e 95 76 bd 72 8f 91 3d b0 ca 27 3d 55 28 9b 3d
       -0.060200803 0.07107438 0.040964782 0.07576052
000100 3b 47 7f bc 40 20 5e 3d 30 a0 f9 bd c5 c2 a7 3d
       -0.0155809475 0.054229975 -0.121887565 0.08191446
000110 a8 6d e5 3d 09 90 b9 3d ae 36 f5 3d 5b 51 08 3d
       0.11202556 0.09060676 0.1197332 0.03328071
000120 26 f6 a8 bc a8 8c 61 3d 9a 47 a1 3d 98 6a 07 bc
       -0.020625185 0.05506578 0.07874985 -0.00826516
000130 c7 5b 52 3d 02 af 7f bb fb 87 47 bd 75 7f 8d 3c
       0.051357057 -0.0039014225 -0.048713665 0.01727269
000140 58 dc 87 3d 3e 6e bc 3d 0a b1 d9 bc 49 55 ac bd
       0.06633824 0.092007145 -0.026573677 -0.08414704
000150 10 b7 30 3d ac 1f 13 bc 38 de 92 bd 27 a5 cc 3d
       0.043143332 -0.008979719 -0.07171291 0.09992438
000160 a3 e8 14 3c 0c 7a 3b bd 91 0f 54 3d 34 1f fb 3d
       0.009088668 -0.04577069 0.051772658 0.12261811
000170 13 3c ce bc 7d f7 e3 3c e5 e3 0c bd 56 71 6a bd
       -0.02517513 0.027827973 -0.034397025 -0.05723699
000180 2e 0c 74 3d 99 d6 9c bb d5 1c ef 3d 6f d2 21 bd
       0.059581928 -0.004786324 0.11675421 -0.039507326
000190 21 31 bf bd d9 60 e3 bd 1c 79 db bd 22 26 aa 3b
       -0.093355425 -0.111024566 -0.10716459 0.005192534
0001a0 6d 61 a3 3d 67 67 87 bd 06 93 ce ba a1 13 60 bd
       0.07977567 -0.06611519 -0.0015760369 -0.05470622
0001b0 c7 e6 e4 3c 8a 71 e2 3c e9 1a f3 bc 11 dd 94 bd
       0.027942074 0.02764203 -0.029675918 -0.072687276
0001c0 4d c5 dd bd 3c 05 ae 3d 5a 7d 96 bb 18 c2 12 3a
       -0.10828648 0.08497092 -0.00459258 0.000559838
0001d0 e4 5b c5 bd 1d ca c2 3d ea b4 ee bd 0d c9 2f 3d
       -0.09636667 0.09511206 -0.116556 0.042916346
0001e0 e7 ef 3c bd 2d 92 c0 3d ce 24 83 bd 54 d4 25 3d
       -0.046127226 0.09402881 -0.06403504 0.040485695
0001f0 12 69 fa bc 98 16 df 3d ee d6 94 bd 99 41 a1 3d
       -0.03056768 0.10892981 -0.07267557 0.0787384
000200 ac 56 f6 bb 6a 2f 8e ba 3a a5 a0 bb 68 3b 03 3c
       -0.0075176563 -0.0010847871 -0.004902509 0.008009769
000210 fd ad 7c bb 65 72 c7 39 55 ef 0d bb 21 d0 9f 39
       -0.0038555854 0.00038041468 -0.0021657546 0.0003048191
000220 86 ee d0 3a 39 66 e4 ba ba fe 9d 3a 5b 30 34 bb
       0.0015940226 -0.0017425484 0.0012054064 -0.0027494642
000230 dc 3b 0a 3b dd 06 14 ba 3b 4f ae b8 7a fb 92 3b
       0.0021092808 -0.00056467747 -8.3117244e-05 0.0044855447
000240 17 5e ae ba 98 fa 81 3a 5e de 31 bb 06 69 f3 3b
       -0.0013303187 0.0009916602 -0.0027140598 0.0074282913
000250 1e c6 ed ba bd 9a b7 3b f1 ee 57 bb 47 06 f7 bb
       -0.0018140709 0.005603163 -0.0032948817 -0.00753859
000260 9e 8d 93 3b 89 53 f7 38 75 77 e5 ba 7c 82 02 3a
       0.004502966 0.000117934374 -0.0017506914 0.000497855
000270 cd bd 96 ba dc 0c ab 3a 7c 25 fd ba de 58 80 39
       -0.0011500657 0.0013050097 -0.0019313539 0.00024480274
000280 63 43 76 bb e1 97 e8 3b ff 5c 9b 3b a9 e2 20 bb
       -0.0037576787 0.0070981835 0.0047413106 -0.0024549162
000290 7b 8a fc bb 69 d4 0a bb 7f cf 39 3b 50 1f 57 3b
       -0.007706938 -0.0021183735 0.0028352437 0.003282506
0002a0 77 d4 9e 3b a7 a1 9f b9 44 95 e1 b9 8c 11 5c 3b
       0.004847105 -0.00030447284 -0.00043026556 0.0033579795
0002b0 01 e1 f6 ba 07 a5 b0 ba ec f4 ce 3b 3f 11 99 3b
       -0.0018835367 -0.0013476916 0.006315818 0.0046712453
0002c0 af 51 32 3b 69 d2 77 3a 0a 9e 4f 3a f0 5e 41 ba
       0.0027209332 0.0009453656 0.0007919973 -0.00073765125
0002d0 19 ac be 3b df a1 82 3a 28 5d 07 bb 36 da e2 b9
       0.0058188555 0.0009966454 -0.002065489 -0.0004326866
0002e0 9b 5b e1 bb 4c d6 bd bb a8 d4 1d bb e0 c1 99 b9
       -0.0068773753 -0.0057933684 -0.0024083052 -0.00029326882
0002f0 cc 7c fa ba 17 eb b2 37 cd c7 ca ba 6e 02 f2 3b
       -0.0019110679 2.1328726e-05 -0.0015470922 0.0073855435
000300 1c 5e d7 ba 96 35 6e bb 6a c7 a8 39 4f cd 43 bb
       -0.0016431245 -0.0036347858 0.00032192032 -0.0029877012
000310 ec db 42 ba 14 a8 f2 ba 0f bf 02 3c a7 15 aa 3a
       -0.00074332836 -0.0018513226 0.007980122 0.0012976424
000320 b8 b4 a3 3b 63 90 c6 38 c0 71 9a ba f5 2b c5 bb
       0.0049959086 9.46827e-05 -0.0011783168 -0.006017203
000330 87 60 9b 3b 44 35 af ba 47 cb 9d b9 82 8a 66 39
       0.0047417316 -0.0013367315 -0.00030096827 0.00021986107
000340 2f f8 a6 bb 38 3f 54 bb 96 42 72 3b af a9 40 bb
       -0.0050955038 -0.0032386314 0.0036965958 -0.0029398014
000350 0a 8f aa bb a3 8e 29 3b 57 62 a0 39 43 1c 2f ba
       -0.00520504 0.0025872372 0.00030590847 -0.00066799315
000360 8b ff 07 bb 1b 68 54 3b 3a 1f 4f 38 f7 d6 d1 ba
       -0.002075168 0.0032410685 4.9381728e-05 -0.0016009499
000370 7f 0d 68 3b fa b1 5f b9 e2 71 e3 3a 05 37 f8 bb
       0.0035408435 -0.00021333239 0.0017352665 -0.007574918
000380 ce 81 91 bc 97 a5 4c ba 51 55 d6 3b 0d e3 16 ba
       -0.017762091 -0.0007806657 0.006540932 -0.0005755879
000390 bf d7 fa 39 49 2d 9f bb 3a de 1f 3b 46 8d 90 3b
       0.0004784446 -0.0048576933 0.0024393932 0.0044113724
0003a0 a5 25 74 b9 a0 39 86 3a c9 91 c7 3b 8f cf e3 3a
       -0.00023283677 0.0010240562 0.006090377 0.0017380583
0003b0 3b bb 9d 3b b1 62 24 bb c8 39 0b 3b 8d c1 96 ba
       0.0048135794 -0.0025083239 0.0021244157 -0.0011501774
0003c0 9a a5 cb ba 6b 1e 95 3a 87 3e c8 ba 81 bb 5e 3a
       -0.0015537024 0.0011376863 -0.0015277424 0.0008496568
0003d0 8a c3 76 3b 46 8d c1 39 4a bd 22 bb d2 b8 ba ba
       0.0037653171 0.00036917086 -0.0024832063 -0.0014245755
0003e0 55 d7 b1 3b 69 9a f7 3b d2 2e ec 3a 78 b1 3b ba
       0.005427281 0.007556249 0.0018019325 -0.0007159929
0003f0 b3 ef 8a 3b ce 0c 8c bb ef 73 ff 3a a2 a6 40 3b
       0.00424 -0.0042739874 0.0019489507 0.0029396196

fc_mu.bias f4 [10]
000000 e4 91 b1 3c 26 51 aa b9 95 4b b8 3a af c8 9f 3c
       0.021676011 -0.00032485387 0.0014060611 0.019504873
000010 1a 24 63 bb 11 c9 50 bc ce 17 72 bd 1a c8 82 3c
       -0.003465897 -0.0127432505 -0.059104733 0.015964556
000020 81 ad 4b bc a1 8a f6 bc
       -0.012431503 -0.0300954

fc_logvar.weight f4 [10, 128]
000000 f1 04 c5 bd 52 13 f2 bd 20 a9 cb 3c ed 84 0b bd
       -0.09620083 -0.11820091 0.024860919 -0.034062315
000010 69 4f 23 3d 12 36 84 bd ac a5 a1 bd 93 a0 91 3c
       0.039870653 -0.064556256 -0.078929275 0.017776763
000020 59 d2 45 bd 5f 7d 4f bd dd ef d2 bc 34 b5 d0 bd
       -0.048296306 -0.050656673 -0.025749141 -0.10190812
000030 dd 3b c2 3c 99 18 b7 3a 1d a3 f5 bc 9a 29 23 bd
       0.023710186 0.0013969123 -0.029985005 -0.039834596
000040 7e f7 bd bb c8 ed ef 3c 0d 4d 5e bd 05 68 e5 bc
       -0.0057973256 0.029288188 -0.0542727 -0.028003702
000050 47 86 70 bb cb ac c0 bc 59 c3 e7 3b c3 03 12 bd
       -0.003670113 -0.023519894 0.007072848 -0.03564812
000060 93 d1 0d bd fd bf be bc c5 4c 13 bd 9e 3f 0b 3d
       -0.034623694 -0.023284907 -0.035961885 0.033996217
000070 b3 59 5f 3d 7e 19 f8 bd 1c d8 9e bc 25 a5 ca 3c
       0.054528903 -0.12114237 -0.019390158 0.02473695
000080 64 47 03 3d 9f 21 a2 3d 5a 50 1d bb 1f 87 34 bd
       0.032050505 0.07916569 -0.0024004192 -0.044074174
000090 d8 de 15 3d 3b e7 25 3d 44 53 85 bd 34 f2 90 bd
       0.036589473 0.04050372 -0.06510022 -0.070774466
0000a0 a0 79 54 bd 79 fd c2 39 08 e6 14 bd bb 1f 01 3d
       -0.051873803 0.00037191415 -0.036352187 0.0315244
0000b0 42 1f 31 bd b0 9a 26 bd e8 d8 e2 bc 79 dd 3c 3c
       -0.0432427 -0.040674865 -0.02769132 0.011527413
0000c0 cd d3 97 bd d3 d5 de bd 47 d0 dc 3a c3 6a 78 bc
       -0.07413445 -0.108806275 0.001684674 -0.015162173
0000d0 03 7a b5 bd 79 a0 e1 3c 09 8c 2a 3c a1 6b 0c be
       -0.088611625 0.02754234 0.010409364 -0.13712932
0000e0 85 ef 09 3d c7 5f 12 be 70 93 03 3d da 14 0c bd
       0.03367569 -0.14294349 0.03212303 -0.034199573
0000f0 47 24 0b bd dd 89 39 bb fc 06 e7 bc 6b af bd bc
       -0.033970144 -0.0028310933 -0.028201573 -0.023154935
000100 47 88 2e bd 84 dc 7b bc e0 98 90 3d 2b c4 85 bd
       -0.042610433 -0.015372399 0.070604086 -0.06531557
000110 e6 3f a8 bd cc b9 0f bd d5 55 3a bc df 1a 16 be
       -0.08215313 -0.0350893 -0.011373003 -0.14658688
000120 5e dd 17 bd a7 e8 1f bc 94 69 c8 bd ed fb ab bc
       -0.037076347 -0.0097600585 -0.097857624 -0.020994151
000130 c6 55 98 3d 8c 0c 53 bd 21 8a 7b 3d 6f bf 37 bd
       0.07438235 -0.051525638 0.061411027 -0.0448603
000140 c0 92 3c 3d cb 1b 56 bd ec d6 6c bd 52 f4 6a bd
       0.04603839 -0.0522726 -0.057822153 -0.05736191
000150 74 10 cd bd 27 db 54 bd 87 3c 69 3c da 5e d9 bc
       -0.10012904 -0.051966812 0.014235622 -0.026534487
000160 a2 8f d3 3d af bc 82 bd c5 fd 58 3c 88 ed 96 bc
       0.1033013 -0.06383645 0.013244097 -0.01842381
000170 09 c1 b1 3c de 43 54 bd 74 90 89 bc a8 4b f7 bc
       0.021698492 -0.051822536 -0.016792513 -0.030187443
000180 ae 80 e7 3c d9 b5 97 bd 51 00 a2 bb d6 c0 10 bd
       0.028259601 -0.074077316 -0.0049438854 -0.035340153
000190 c9 3e af bb 45 98 a3 bb bc 8c f0 bc 4f 0b 64 3c
       -0.0053480607 -0.004992517 -0.029363982 0.013918712
0001a0 1f 81 2c bb 5c c4 7e bd f1 29 1d bc e3 62 80 bd
       -0.002632208 -0.06219898 -0.009592519 -0.06268861
0001b0 55 99 f3 bd 92 a1 81 bc 16 5f 24 3d a7 b4 8c bd
       -0.1189448 -0.015824113 0.040129744 -0.06870394
0001c0 45 fb 8d bd 99 87 80 3b 2d 97 ad 3b 07 d9 40 3c
       -0.069326915 0.0039224145 0.0052975626 0.011770493
0001d0 16 03 e6 bd 0a 90 7e bd b5 8d 1a 3c b6 8c 20 bc
       -0.11231057 -0.062149085 0.0094332 -0.009799173
0001e0 cd 45 00 bd 85 8c 3b 3d b6 48 c2 bd 5c ca 57 bd
       -0.031316567 0.045788307 -0.09486525 -0.05268322
0001f0 40 12 cd bd 8d 42 23 3b 0f 97 ac bd 1c fd e2 bc
       -0.100132465 0.0024911494 -0.0842725 -0.027708583
000200 33 b9 de b8 97 31 2d 3a 9f 24 fb ba 77 5b 53 bb
       -0.00010620281 0.0006606816 -0.0019160694 -0.0032250562
000210 a7 0a bd 39 2b e5 9d ba c3 20 12 3b 4c e3 ec ba
       0.00036056826 -0.0012046447 0.002229736 -0.0018073111
000220 ec ba 12 3b c4 3a 57 3b 46 03 54 ba e4 d1 20 39
       0.0022389246 0.0032841424 -0.0008087646 0.0001533698
000230 4f 99 c6 bb 17 34 a3 bb 20 3d 91 3a 23 7d ad ba
       -0.0060607563 -0.004980575 0.0011080839 -0.0013236146
000240 85 c0 67 3a 4f 9a a5 3a be 18 dd 3a 41 ec 30 bb
       0.00088406383 0.0012634489 0.0016868336 -0.0026996287
000250 ef 00 b0 38 55 df b1 3a f4 e9 4b 3a dc 6e 4c bb
       8.392508e-05 0.0013570586 0.0007778697 -0.0031194007
000260 29 8f 3f bb 06 00 b1 3a 60 47 79 3b f7 c1 6a 3b
       -0.0029229617 0.0013504035 0.0038036928 0.0035821178
000270 d8 f7 a2 38 ae 54 65 3b f2 c9 96 3a b6 91 4a bb
       7.7709265e-05 0.00349931 0.0011504276 -0.0030909604
000280 85 40 5f bb 8e 89 28 bb 79 77 77 b9 0c bb e6 b9
       -0.0034065556 -0.0025716755 -0.00023600263 -0.0004400838
000290 9c cb 33 3b c0 4a a5 3b 6c 73 7c 3b 1d 6a e0 3a
       0.0027434593 0.0050443113 0.0038520945 0.0017121468
0002a0 9f 74 86 ba 46 10 dd 3a e3 3f e7 ba 59 0b 46 3b
       -0.0010258144 0.0016865812 -0.0017642941 0.0030219166
0002b0 ef fc de b9 f7 3c d3 ba 5c 2c 88 ba 67 5a 03 3a
       -0.0004253159 -0.0016116191 -0.0010389197 0.00050107244
0002c0 33 77 2e b9 cc 46 39 b9 c1 4e bc ba 4e 38 8c ba
       -0.00016638338 -0.00017669349 -0.0014366732 -0.0010697932
0002d0 25 9c 01 bb 2e 23 b7 3a ff 1c 78 3b 86 e0 4d 3b
       -0.0019776907 0.0013972276 0.003785908 0.0031414344
0002e0 ef 17 34 3a 10 e0 17 38 e8 67 dd ba a3 44 64 ba
       0.00068700215 3.620988e-05 -0.0016891928 -0.00087077374
0002f0 36 9e cf 3a 6d fc 35 3b 05 f4 05 ba ca c1 19 3b
       0.0015839997 0.0027768866 -0.0005109909 0.0023461455
000300 9e 17 78 3b 73 88 e0 3a ab 23 b1 3a f9 39 70 ba
       0.0037855874 0.0017130509 0.0013514658 -0.0009163912
000310 d4 8b b3 3a 59 c5 c0 3a c9 a0 29 ba 85 86 1b 3b
       0.0013698288 0.0014707252 -0.0006470797 0.0023731303
000320 7b f4 b4 3a d6 b8 fd 3a ef f7 3b 39 f3 24 07 ba
       0.0013805771 0.0019357454 0.00017926072 -0.0005155347
000330 f4 a3 36 bb 9c 03 87 ba 4c 77 f0 ba de 4b 2a 3a
       -0.002786872 -0.0010300758 -0.00183461 0.00064962904
000340 6f a0 34 3b d4 78 26 3a 84 51 0c 3b 09 f9 a6 ba
       0.0027561446 0.0006350402 0.0021410892 -0.0012739013
000350 44 fd 3c 3b dd 51 08 ba ed 59 81 3a e4 ab 12 3b
       0.0028837482 -0.0005200187 0.0009868719 0.0022380287
000360 95 c1 a6 ba 5b 20 09 ba c4 a6 8b 3a cf 0f d3 39
       -0.0012722487 -0.00052309566 0.0010654558 0.00040256834
000370 d5 98 a5 3a 2c e6 c9 3a c1 ec f9 b8 bb 0d 18 3b
       0.0012634048 0.001540368 -0.00011917344 0.0023201543
000380 0e be 75 bd 8c 4e 16 3b b0 b5 1b bb c2 a9 91 ba
       -0.059995703 0.0022935001 -0.0023759417 -0.0011113214
000390 cd 9c 17 3b d6 6e 27 bb bd 3c 9c 3a ff 6c e0 ba
       0.0023134232 -0.002554824 0.0011919957 -0.0017122327
0003a0 c4 46 81 3b cc 4a d8 39 5f a7 4a bc 0d 35 57 3b
       0.0039452035 0.00041254458 -0.012369006 0.0032838017
0003b0 12 41 47 3a 57 04 13 3b 2e 17 9e ba 7d e0 06 3a
       0.0007600944 0.0022433007 -0.0012061351 0.00051451457
0003c0 9c d8 47 bb f5 cb a6 3a 84 f3 76 3a e8 29 0f bb
       -0.00304941 0.0012725579 0.0009420442 -0.0021845046
0003d0 8b 11 be 3a 38 2b a9 b6 1b 20 b9 ba 89 a5 be ba
       0.0014501078 -5.041624e-06 -0.0014123948 -0.0014545183
0003e0 28 80 7f 3b e0 3c 64 b8 83 97 8e 3a 8e b5 8a ba
       0.00389863 -5.441613e-05 0.0010878894 -0.0010582672
0003f0 16 26 37 3b c6 61 83 ba bb 5d 10 3b fc d5 11 bb
       0.0027946285 -0.0010023646 0.0022028524 -0.0022252789

fc_logvar.bias f4 [10]
000000 7b 25 91 be 6b 52 19 bc d5 f2 21 3c 96 ce a2 be
       -0.28348908 -0.009358029 0.009884556 -0.31798238
000010 ba 1a 15 3c 35 46 44 bc c8 3e 88 be 7f 38 2e bc
       0.00910061 -0.011979629 -0.26610398 -0.010633587
000020 47 65 82 3b 53 60 ca be
       0.0039793584 -0.39526615

decoder.0.weight f4 [128, 13]
000000 93 ec be 3c c4 cd a1 3d e9 43 ff bc 34 77 9f be
       0.023306167 0.07900575 -0.031160312 -0.31145632
000010 c0 20 dc bd d3 08 9b bd f2 a3 72 be 78 2d 58 be
       -0.10748434 -0.075700425 -0.23695353 -0.21111095
000020 5a 0f 19 be 17 8d 93 3d 39 c8 11 bd df c6 d2 ba
       -0.14947262 0.07204645 -0.035591338 -0.0016080997
000030 8b 88 55 bd bf 45 1e 3e 49 93 0d be bd 96 94 3b
       -0.05213217 0.15456294 -0.13825716 0.004534571
000040 a9 68 b4 be 0c a9 e8 bd 22 a6 2f be ce 5e ca ba
       -0.352361 -0.11360368 -0.17153218 -0.0015439631
000050 7a 73 07 be 82 3b 7c 3d a7 eb 8a 3e 32 00 dd bd
       -0.13227645 0.06158019 0.27132913 -0.10791053
000060 6d ee 1a 3e 6c af 57 3e 5d 15 49 3e 00 56 f6 3c
       0.15130015 0.21063012 0.19637056 0.030070305
000070 be c5 0b be 55 8e 20 bc 4b 30 1b 3e 63 02 a1 3d
       -0.13649651 -0.00979956 0.15155141 0.07861783
000080 89 1d 48 3e e3 39 22 3e 71 83 e5 3d 42 c0 a0 3e
       0.19542517 0.15842395 0.11206711 0.3139668
000090 c7 b3 10 3d 28 c1 98 3d 21 75 1c 3e 3f 98 41 be
       0.0353277 0.07458717 0.15279056 -0.18905734
0000a0 02 ed e2 3d ff 85 8b 3d 73 3a 4c 3e 4c d4 c5 3d
       0.11080362 0.06812667 0.19944172 0.09659633
0000b0 1d 9b e7 3d 56 63 62 be 33 cf 30 bd 10 60 76 bd
       0.113088824 -0.22108206 -0.04316635 -0.060150206
0000c0 ff 39 be 3d fc 21 af bd cf db 43 3e dd 3b 1d be
       0.092884056 -0.08551404 0.19126819 -0.15354867
0000d0 78 3a d8 3d ff 20 30 be d0 de d5 bd f7 d8 7d 3e
       0.10558027 -0.17200087 -0.10442889 0.24789797
0000e0 07 06 62 3e 31 75 f5 bd a2 84 e4 bd e4 41 1f be
       0.22072612 -0.11985243 -0.1115811 -0.15552479
0000f0 c0 52 00 3e 2a 2d a1 be a7 ce f3 bc 31 5e e9 bd
       0.12531567 -0.3147977 -0.029761625 -0.11394919
000100 66 34 f4 3d 2f 17 33 3d 39 73 14 3d 9e 09 43 3c
       0.11924057 0.04372328 0.036242697 0.011904148
000110 38 b1 17 3f 05 b4 bc 3b e2 1f df bc 6d a7 e9 bc
       0.5925479 0.0057587647 -0.027236883 -0.028522218
000120 28 18 57 bd 6c 58 5c 3d e5 cd 76 3e 7b 9e df 3c
       -0.05251327 0.053795263 0.2410198 0.027297249
000130 75 2b 1d be cf 25 04 be c0 31 11 be d5 ea ed bd
       -0.15348609 -0.12905048 -0.14179134 -0.11617056
000140 a5 14 96 3b 28 aa a1 3e fd 13 58 bc 09 55 0f be
       0.0045800977 0.3157513 -0.013188359 -0.13997282
000150 1f a9 93 be cd ed 41 bd cb 07 1e bd 09 8f 5d be
       -0.28839967 -0.047345925 -0.03858165 -0.21636595
000160 94 4d 23 be 69 d8 0f bd 0d 85 43 be ee 1f 8b 3e
       -0.15947562 -0.035118494 -0.19093724 0.27172798
000170 ce b1 87 3d 4b ad ff 3a 68 e8 e8 3d d7 48 0a be
       0.066257104 0.0019506601 0.11372453 -0.13504349
000180 a7 49 cf 3d c0 4c 9e be fb 7a 1c 3d 37 a7 2c 3d
       0.1012147 -0.3091793 0.03820322 0.042151656
000190 5b 3f b8 be 88 11 b9 bc ea f6 37 be 03 62 34 be
       -0.35985836 -0.022591367 -0.17965284 -0.17615514
0001a0 10 a5 56 be d3 b4 e6 bd 4e 9d cc bd 33 2b c9 be
       -0.20961404 -0.11264958 -0.09990941 -0.3929077
0001b0 23 cb 33 bd 0b 79 91 bd 69 12 2d be aa c8 a1 bd
       -0.0438949 -0.07103165 -0.16901554 -0.07899602
0001c0 f9 7e 1a be 03 6a 30 bc c9 61 b9 bd 40 87 43 3c
       -0.15087499 -0.010767463 -0.09051854 0.011934102
0001d0 62 a9 89 3e 8a 4e cf bd fe 58 b9 3d ee 68 dd 3c
       0.2688704 -0.10122402 0.09050177 0.027027573
0001e0 00 36 ae bd 0c db a2 3c 2e d2 24 bd f8 58 94 3e
       -0.085063934 0.01987984 -0.040239505 0.28974128
0001f0 70 77 e2 bc 0e b3 d5 3d 21 ef ce be 37 4a 82 bc
       -0.027644843 0.104345426 -0.40416816 -0.015904529
000200 6e db 66 bd 02 7a f2 bb 55 d2 5b be d0 b4 2d bc
       -0.05636161 -0.0073997984 -0.21466954 -0.010602191
000210 65 1c 90 3d ef cf a5 be ce ba 80 bd 8d 58 98 3d
       0.07036666 -0.32385203 -0.0628563 0.07438765
000220 e8 0a a2 3e 15 90 27 bd 64 5a c2 bc f7 a0 03 bf
       0.31648946 -0.04090889 -0.023724742 -0.5141749
000230 9c cb f1 bd b0 bb 2f be 5b e4 1a be 35 4c 9d 3e
       -0.118064135 -0.17161441 -0.15126173 0.30722204
000240 45 8f 64 3d a8 80 ab 3d c4 ad fa 3c fc af 5c 3d
       0.055800695 0.083741486 0.030600436 0.05387877
000250 2d 59 9a bd 56 00 d7 3e 25 d3 2c 3d b2 e0 4b bd
       -0.0753654 0.41992444 0.04219355 -0.049774833
000260 7f 3e 3e be 00 e8 5f 3c c5 b8 d5 bc 3e da 84 bd
       -0.18578528 0.013666153 -0.026089082 -0.06486939
000270 1b 8b 3d be 8c 4c b9 3c 77 c2 2b bd b9 65 c9 be
       -0.18510096 0.022619508 -0.041933503 -0.3933542
000280 98 c6 88 bd 4e de 8c bd b3 ff 2a be 20 be 3f 3d
       -0.06678504 -0.06878339 -0.16699104 0.046812177
000290 86 1a 92 bd 84 c3 5a be 8b c1 18 3d 0a 00 55 3d
       -0.07133965 -0.21363646 0.037293952 0.05200199
0002a0 ad 85 25 3d 3b b8 8c bc d5 13 21 bd 17 e7 8e 3d
       0.040410686 -0.017177692 -0.039325554 0.06977671
0002b0 27 88 f8 3c e5 1a d3 bc fc 66 3a bd 27 8c 88 be
       0.03033836 -0.02576966 -0.04550837 -0.26669428
0002c0 b3 c8 92 bd df e5 39 3c 11 f1 19 bf 43 28 25 bd
       -0.071671866 0.011346309 -0.60133463 -0.0403216
0002d0 c3 4b bd bd a7 44 f5 bd 78 11 dc bd 98 c5 1e bd
       -0.09242966 -0.11975985 -0.107455194 -0.03876266
0002e0 64 2e 6d 3d 67 9a b1 3e 6a 92 8e bd 7c 81 34 bd
       0.05790557 0.34688112 -0.0696152 -0.0440688
0002f0 0c cb a4 3e 18 6b 84 bc 34 2a 3a 3d cb 34 43 bd
       0.32186162 -0.016164348 0.045450404 -0.04765777
000300 1d 4f c1 3d ab 72 2e 3e 5f 76 72 3c 9c f0 80 be
       0.09438918 0.1703593 0.01479873 -0.2518357
000310 11 37 7d 3d 05 d7 ab 3d ed c7 6a be 1a d9 1f bc
       0.061820094 0.08390621 -0.22927828 -0.009756351
000320 99 5a 0d 3e 03 c0 9a 3e 9c 16 48 bd 09 96 a8 bd
       0.13804092 0.30224618 -0.048849687 -0.08231742
000330 4b 52 a0 3e 92 22 8b 3c eb 6d 2c 3d 8c f6 19 3e
       0.31312785 0.016984258 0.042097013 0.15035456
000340 fe 52 7a 3e d9 eb 8b 3b d6 36 3a 3d d9 35 54 bd
       0.24445722 0.0042700586 0.045462452 -0.051809166
000350 42 d9 2a bc d1 06 6a bc 94 4d 3e bc a3 a5 25 bc
       -0.010427775 -0.014283852 -0.011615176 -0.010110292
000360 3e 9f 03 3d 9b 41 b5 3e 44 e6 b6 3c 93 d4 dd bc
       0.032134287 0.35401616 0.022326596 -0.027078902
000370 cc 3d 94 3d 02 9c 82 be c8 75 2d bd 70 48 8c bd
       0.07238349 -0.2550965 -0.042348653 -0.06849754
000380 9a f5 9e bb de e9 c9 3d 10 ce 4b 3d c1 8f 33 bd
       -0.0048510553 0.0985906 0.049757063 -0.043838266
000390 ee 4e f5 3d 05 06 b9 bc fe f1 c4 bc 12 27 4c 3e
       0.11977945 -0.022585878 -0.024041172 0.19936779
0003a0 13 68 50 3e 61 6c da bd 3a 32 74 bd 1f 05 52 3d
       0.20352201 -0.10665203 -0.059618212 0.051274415
0003b0 37 a7 01 bd 0f fa b0 bd 5b 1d 16 3d a8 2e cc 3d
       -0.03165361 -0.08641445 0.03664909 0.099698365
0003c0 ba ec c8 3e 4b 04 ad bd 3a b0 4b bd c2 17 82 3d
       0.39243108 -0.084480844 -0.04972861 0.06352188
0003d0 4e 99 6a 3d b6 fd 32 be a0 f6 10 be 53 10 88 be
       0.05727511 -0.17479596 -0.1415658 -0.26574954
0003e0 82 50 e5 bc 82 84 94 bc d1 c1 37 3e 7f 01 ad 3d
       -0.02799249 -0.01812959 0.17945029 0.08447551
0003f0 70 f9 0d bc 13 10 ae be d6 85 18 3d 6a ca 2c bd
       -0.008665428 -0.3399664 0.03723701 -0.042185225

decoder.0.bias f4 [128]
000000 bf ef 75 bd 8a ea 43 bd 93 f7 90 bd bc e6 93 3c
       -0.060043093 -0.047831096 -0.07078471 0.018054359
000010 0f 63 4b be 5c b4 2c 3d d3 5f 6f bd dc 2d 0f be
       -0.19862007 0.04216419 -0.058440994 -0.13982338
000020 17 b7 de bc 83 37 fd 3d 99 5e 8a 3e d2 44 06 be
       -0.027186913 0.12364104 0.27025297 -0.1311219
000030 b2 b2 74 3e d2 10 46 3e ad 29 0e 3e 0f 2d 3e 3d
       0.23896292 0.19342354 0.13883086 0.04642969
000040 28 b5 69 3d 2a f8 c9 3d 10 9a 6a 3e be fb 5d 3e
       0.05705753 0.09861787 0.22910333 0.21678063
000050 8e eb 4a 3e cb b1 04 be 63 c8 80 bc ce 17 77 3e
       0.1981642 -0.12958448 -0.015720552 0.24130175
000060 ae 3f 55 bd 19 30 80 3e c3 39 fe 3d 82 6d df 3d
       -0.052062683 0.25036696 0.12413361 0.10909559
000070 0e 42 90 3d 1e e0 1f 3e fe 36 0a be bd c4 e5 3d
       0.07043849 0.15612838 -0.1349754 0.112191655
000080 1f cc a1 3e c3 45 9c 3d 77 bb 68 bc 36 ac ef 3c
       0.31601045 0.076304935 -0.014204851 0.029256921
000090 3d b3 52 3e af 87 43 3d 1a 58 90 3d d8 b2 db 3d
       0.20576186 0.04773682 0.07048054 0.10727471
0000a0 a0 ba b5 bd 5d 34 bd 3e 21 f3 af 3d 13 51 33 3e
       -0.088734865 0.36954013 0.08591295 0.17511396
0000b0 09 14 2e be 4b c1 87 be 58 3e 61 3e b0 8b e8 3d
       -0.1699983 -0.26514658 0.21996439 0.11354768
0000c0 7c 12 8b 3e 1b 14 21 3d c5 93 33 3e 07 7d 32 be
       0.2716254 0.039325815 0.17536838 -0.17430507
0000d0 76 13 e0 ba 2b d5 57 be 37 0b 78 bd 07 61 50 be
       -0.0017095644 -0.21077411 -0.06055757 -0.20349513
0000e0 82 70 31 3e ae cf 56 3e 99 0f cb 3d b8 74 3e 3e
       0.17328075 0.20977661 0.099150844 0.18599212
0000f0 8f 0c af 3e d0 45 2a 3e c3 e0 03 be 5c d3 53 bd
       0.3418927 0.16628194 -0.12878709 -0.05171524
000100 ee 7c 57 3e a7 81 b1 bd 2a f1 ce 3e 77 fa 30 3c
       0.2104375 -0.08667307 0.4041837 0.010801903
000110 f1 db 05 bb fe c7 eb 3c ab b7 f8 3d 6a bb eb bd
       -0.0020425285 0.028781887 0.12144407 -0.11510356
000120 71 30 37 3e d8 d8 2a be db 07 6a bc 53 77 80 3b
       0.17889573 -0.16684282 -0.014284099 0.0039204746
000130 c0 12 86 bd 09 c7 d6 bd ce 84 1c 3e 6b b2 8f 3e
       -0.06546545 -0.10487182 0.15285036 0.2806581
000140 d5 33 0d be d0 33 4b 3e ad ec 65 be 72 89 9a 3e
       -0.13789304 0.19843984 -0.22453566 0.30182987
000150 bf b9 3c bb eb 92 14 3d 22 88 92 3d f2 53 92 3e
       -0.0028797237 0.036272924 0.071548715 0.2857967
000160 4b ca 80 3e 90 dd 32 3e da 2a a9 bd 0f 21 4b 3d
       0.25154337 0.17467332 -0.082601264 0.049592074
000170 94 9f ba 3d 27 ca 9d bd 9a 17 31 3d f8 ac 12 be
       0.09112468 -0.07704573 0.0432354 -0.14323795
000180 60 28 3b 3e a0 db ee 3c cd c4 e1 3d 2e 93 02 be
       0.1827712 0.02915746 0.11023865 -0.12751457
000190 43 da 26 3e bc 26 76 3e ed bf f5 3d 51 6a b8 bd
       0.16294198 0.24038213 0.119994976 -0.09004653
0001a0 12 44 3d bd 2e 69 3c 3b a2 b1 61 be 40 37 5f be
       -0.046207495 0.0028749215 -0.22040418 -0.2179842
0001b0 6a f7 b6 bd 34 d9 2d 3e 8f 57 e2 3d ac bf 85 3e
       -0.08933909 0.16977388 0.11051857 0.26122797
0001c0 58 07 70 3e ed 4e 9c 3e d9 87 71 3e 4d bf 04 3e
       0.23440301 0.30528966 0.23586978 0.129636
0001d0 2c 5b 30 3d dd bd b3 bd d4 6d 57 be 03 06 fa bd
       0.0430557 -0.08776448 -0.2103799 -0.12208178
0001e0 d5 92 3a be 59 12 ac bd 26 06 45 3e 8f 1c a2 bd
       -0.18220074 -0.08401937 0.19240627 -0.07915603
0001f0 6a a8 aa 3d 89 2b 0a 3e 2c 37 d2 bd 2f 7c 91 bd
       0.08332904 0.1349317 -0.102644295 -0.07103764
