learned_model_weights/old_working_weights/Time_Series_Transformer_weights.pth (torch, 976640 bytes, 95 tensors)

model.encoder.value_embedding.value_projection.weight f4 [64, 42]
000000 d3 9c 27 bc b2 b9 1c bd b3 79 f1 bc 8d eb 9e bc
       -0.010230261 -0.03826303 -0.029476976 -0.019399429
000010 a4 5d 41 bd 1b 55 87 bb b9 2d 15 bd a8 b1 0f 3d
       -0.047208443 -0.0041300184 -0.036420558 0.035081536
000020 37 dc af 3a d6 cd bb bc 40 27 b4 3c ee f6 b6 3c
       0.001341707 -0.022925299 0.021991372 0.022334542
000030 1a 45 25 3d 63 d2 be bc eb 26 27 bd d5 c0 3b 3c
       0.040349104 -0.02329368 -0.0408086 0.011459549
000040 5c 3d 03 bd a7 32 16 ba c5 a7 3d bc d3 02 f0 b9
       -0.03204094 -0.00057295937 -0.011575644 -0.0004577847
000050 84 fc 8d 3c b0 a0 3c 3d 44 5c 8c 3c 3b 14 aa bc
       0.017332323 0.04605168 0.01713384 -0.0207616
000060 4f 48 c9 bb e5 e7 83 bc 93 a0 9d 3a c1 01 99 bc
       -0.006142653 -0.016101787 0.0012026004 -0.018677594
000070 e0 51 81 3c 2f d7 ac 3c 0c cc 28 3d 1b 0e 3e bb
       0.015786111 0.021098701 0.04121022 -0.0029000107
000080 11 2c b0 3c 60 ee 32 bc ad e4 18 bd 06 82 95 3e
       0.021505387 -0.010921091 -0.037327457 0.29200763
000090 45 d1 14 bd a2 f4 de 3c 4b 2c c6 bb 15 13 98 3c
       -0.036332387 0.02721626 -0.0060477606 0.018563787
0000a0 08 39 0f bc 68 f9 f4 3c a2 63 20 3d 19 26 6a 39
       -0.008741625 0.029904082 0.039157517 0.00022330171
0000b0 b5 d1 86 3c 78 f7 12 3d 92 4c 8c 3d b0 3e 8d bc
       0.016457418 0.035880536 0.06850542 -0.017241806
0000c0 3d 24 ac 3c 41 04 28 ba 24 01 5c bc 9a e8 10 bb
       0.021013374 -0.0006409325 -0.013428006 -0.0022111298
0000d0 55 4b ba 3b bf 29 88 bc b1 a8 2f 3d fe 87 46 bc
       0.00568525 -0.016621469 0.042885486 -0.012117384
0000e0 bd fc eb 3c 77 18 df bb f8 b5 1b 3d 89 66 b3 3c
       0.028807038 -0.0068083364 0.038015336 0.021899479
0000f0 40 56 39 3d 3a e9 46 3d 85 0b 0f 3d 72 be 40 3d
       0.04524827 0.048562266 0.034923095 0.047056623
000100 a5 38 6a 3c 09 31 01 3d d8 d7 e2 3c bd a3 54 bc
       0.014295732 0.031540904 0.027690813 -0.012978491
000110 30 27 83 bb 02 c2 99 3c 52 d5 3f 3b 8f 97 c4 3b
       -0.0040024742 0.018769268 0.0029271436 0.0059995125
000120 8c e7 ee bb 16 a0 dd bc 41 74 77 bc dc 00 60 3c
       -0.007290786 -0.027053874 -0.015103401 0.01367208
000130 d5 65 82 bc 22 8f 55 3c 68 3c f6 3d c1 3b 3a bd
       -0.015917698 0.013034614 0.1202324 -0.045467142
000140 77 2d 50 3d 63 56 1d be a6 ee 7b bd 70 06 1f 3c
       0.05082461 -0.15364985 -0.06150689 0.009706125
000150 cb 85 40 3d fb b1 aa 3d 22 07 43 3d 1a 34 ab 3d
       0.047002595 0.08334728 0.047614224 0.08359547
000160 65 d0 5c 3d db 91 d1 3c 67 86 ec 3c 8e c4 9d 3d
       0.053909678 0.025582245 0.028872682 0.077035055
000170 59 0f ee 3c b7 21 72 3d a2 f3 0d 3d 9a ff 31 3d
       0.029060053 0.059114184 0.034656174 0.04345665
000180 89 92 10 3d b9 10 05 3d 3a f8 10 3d f8 ea 10 ba
       0.035295997 0.03248665 0.035392977 -0.0005528177
000190 42 60 47 3d ce ec 7a 3d 52 bd f0 3c 67 2f 4c 3d
       0.048675783 0.06126099 0.02938715 0.049849894
0001a0 22 57 d9 3c 6d 3b 28 3c a8 db 8a bc 76 22 7f bc
       0.026530806 0.010268074 -0.016950443 -0.015572181
0001b0 33 03 ce bc 0d 8d 0d bd 62 25 0d bd 7c b9 a7 bb
       -0.02514801 -0.034558345 -0.03445948 -0.005118547
0001c0 1c e9 98 3a 50 b1 ad 3b 71 0e 72 3c 0d fa 58 3d
       0.0011666152 0.0053006783 0.014773951 0.052972842
0001d0 b9 b2 a8 3d 33 a4 e5 bb 4b 02 c0 3c 7f e9 84 bd
       0.08237214 -0.0070080995 0.023438593 -0.06489848
0001e0 1c 48 95 3d ca fd 02 bc 3d 19 b3 3d 97 a2 11 bd
       0.072891444 -0.007995078 0.08745048 -0.03555545
0001f0 3c 30 92 bc 11 cb 49 bd 65 4d 12 3a 6b e8 4e 3c
       -0.017845266 -0.049265925 0.00055809907 0.012628655
000200 3b 7b c8 3c ee 21 0b bc 08 fb ae 3c e3 f5 15 3d
       0.024472823 -0.008491976 0.021359935 0.03661145
000210 53 1d 31 3c 89 51 0c 3d 7a 8f d4 3b 4e 61 18 3d
       0.010810214 0.034257445 0.0064868303 0.037202172
000220 8a f2 a9 3c 99 08 4f 3d f9 f6 5a 3d c4 a0 b0 3b
       0.020745534 0.05054531 0.053458188 0.0053902585
000230 90 50 f1 39 20 2e 37 3c 79 24 fd b9 55 9e c1 bb
       0.00046027126 0.011180431 -0.00048283095 -0.005908767
000240 20 b0 c0 3c 3a c2 74 3d 95 aa 8d 3d 2b e1 b9 3c
       0.023521483 0.05975554 0.069173016 0.022690376
000250 fc 04 63 3d c2 c2 bf 3b bf 69 08 3d 9f 99 a1 3b
       0.055424675 0.0058520744 0.033303972 0.004931643
000260 84 d6 c6 3c 21 cb 15 bb f4 ca 37 3d 28 e6 1c 3d
       0.02427221 -0.002285667 0.044871286 0.03830543
000270 52 47 93 bb 19 28 ae 3c 16 d5 2c 3c 14 08 2e 3c
       -0.004494586 0.021259354 0.0105488505 0.010622043
000280 17 b1 7d bc 71 54 81 3e 8b f5 12 3d 7c b5 8a bc
       -0.015484116 0.25259736 0.0358787 -0.016932242
000290 ab b9 c4 3c b2 73 ae bd 17 3a 5a bd ee 9b 1f 3c
       0.024014315 -0.08518161 -0.053278055 0.009741766
0002a0 f3 0a b0 bc 12 c7 69 3c aa 6b 3d bd f5 76 a4 3b
       -0.021489596 0.0142686535 -0.046245255 0.0050190636
0002b0 68 16 9e bc 64 00 8a bc 99 99 1f bc 1a 5e 57 bd
       -0.019297794 -0.01684589 -0.00974121 -0.052579977
0002c0 e8 60 2d bd 13 05 d7 bc d8 92 13 bd e0 65 63 bd
       -0.042328745 -0.026247537 -0.036028713 -0.055517077
0002d0 10 d9 b4 bc 92 bb 35 bd 82 02 07 3c a8 30 a8 bc
       -0.02207616 -0.044368334 0.008240344 -0.020531014
0002e0 20 11 b5 bc c3 67 9d bc 6e 8a 8c 3a 2b e1 e7 bc
       -0.022102892 -0.019214517 0.0010722408 -0.02830561
0002f0 ea cd 40 bb c9 75 13 bc e9 79 52 3d 70 76 20 3d
       -0.002941961 -0.00900025 0.051385794 0.03917545
000300 e7 75 ca 3c 44 a7 f1 3c 18 e5 b3 3c f1 fe 37 3c
       0.024714423 0.029498704 0.021959826 0.011230216
000310 4a 1e 61 3d 72 6a 21 3d f3 10 2f 3d 46 1c f3 3b
       0.054960527 0.039408155 0.042740773 0.007419142
000320 92 fe 4f 3d 46 27 f0 bb 76 25 10 bc cd fb 08 3c
       0.050779887 -0.0073289005 -0.008797994 0.008360815
000330 ea 3d 1f bd 60 59 54 bd 1d db 62 3b 0e de 4f 3d
       -0.038877405 -0.051843047 0.0034615465 0.050748877
000340 f0 93 9e bd 42 48 19 3d 2f 41 41 3d ff fc a0 3d
       -0.077430606 0.037422426 0.047181305 0.07860755
000350 78 92 a8 3d bb 95 e1 3d b8 1d 8f 3d f5 5a 38 3d
       0.08231062 0.11014887 0.0698809 0.04500862
000360 bc de 48 3d 51 91 9d 3c 3b 9e 39 3d 9d 91 b6 3c
       0.04904054 0.019234331 0.045316916 0.02228623
000370 a4 b2 1f 3d a8 33 5e 3c 8a ce e7 ba aa 23 1d 3d
       0.038988724 0.0135621205 -0.0017685455 0.03836409
000380 28 64 c4 bc 62 6a 55 bb 30 61 17 bd cb 94 39 3c
       -0.02397354 -0.003256463 -0.03695792 0.011326979
000390 e4 c2 11 3c 2c 21 00 3c a9 8d 8c bc 2a 10 61 bd
       0.008896563 0.007820409 -0.017157393 -0.054947056
0003a0 0f fa fb 3b 73 a2 54 bc 77 09 ee 3a 12 1e 20 bd
       0.0076897214 -0.012978184 0.001816078 -0.039091177
0003b0 10 d3 23 bd 04 41 6c bc 44 f4 19 bc 1b f1 3f 3c
       -0.039996207 -0.014419798 -0.009396616 0.011715199
0003c0 c0 94 fc bb c9 f0 ed 3c 9f 4b 0d 3c 98 e8 29 3c
       -0.007708162 0.02904548 0.0086239865 0.010370396
0003d0 66 82 7f 3a 45 19 04 be 20 a6 f4 3d 3d 99 fe 3c
       0.0009746909 -0.12900265 0.11945748 0.03107893
0003e0 23 d5 ff ba ba f5 92 3d 7a 26 0d 3d 8b 99 af bc
       -0.0019518476 0.07175775 0.034460522 -0.02143552
0003f0 fd ee b6 bc 7a 89 79 bc e1 3a 18 bd 65 8e 0b bc
       -0.022330755 -0.015230531 -0.037165526 -0.008517836

model.encoder.embed_positions.weight f4 [864, 64]
000000 00 00 00 00 00 00 00 00 00 00 00 00 00 00 00 00
       0.0 0.0 0.0 0.0
000010 00 00 00 00 00 00 00 00 00 00 00 00 00 00 00 00
       0.0 0.0 0.0 0.0
000020 00 00 00 00 00 00 00 00 00 00 00 00 00 00 00 00
       0.0 0.0 0.0 0.0
000030 00 00 00 00 00 00 00 00 00 00 00 00 00 00 00 00
       0.0 0.0 0.0 0.0
000040 00 00 00 00 00 00 00 00 00 00 00 00 00 00 00 00
       0.0 0.0 0.0 0.0
000050 00 00 00 00 00 00 00 00 00 00 00 00 00 00 00 00
       0.0 0.0 0.0 0.0
000060 00 00 00 00 00 00 00 00 00 00 00 00 00 00 00 00
       0.0 0.0 0.0 0.0
000070 00 00 00 00 00 00 00 00 00 00 00 00 00 00 00 00
       0.0 0.0 0.0 0.0
000080 00 00 80 3f 00 00 80 3f 00 00 80 3f 00 00 80 3f
       1.0 1.0 1.0 1.0
000090 00 00 80 3f 00 00 80 3f 00 00 80 3f 00 00 80 3f
       1.0 1.0 1.0 1.0
0000a0 00 00 80 3f 00 00 80 3f 00 00 80 3f 00 00 80 3f
       1.0 1.0 1.0 1.0
0000b0 00 00 80 3f 00 00 80 3f 00 00 80 3f 00 00 80 3f
       1.0 1.0 1.0 1.0
0000c0 00 00 80 3f 00 00 80 3f 00 00 80 3f 00 00 80 3f
       1.0 1.0 1.0 1.0
0000d0 00 00 80 3f 00 00 80 3f 00 00 80 3f 00 00 80 3f
       1.0 1.0 1.0 1.0
0000e0 00 00 80 3f 00 00 80 3f 00 00 80 3f 00 00 80 3f
       1.0 1.0 1.0 1.0
0000f0 00 00 80 3f 00 00 80 3f 00 00 80 3f 00 00 80 3f
       1.0 1.0 1.0 1.0
000100 a4 6a 57 3f ce 7a 2e 3f ba 7d 08 3f f0 90 d1 3e
       0.84147096 0.68156135 0.53316844 0.4093089
000110 3e 39 9f 3e 27 8f 70 3e 3a 23 35 3e f3 25 08 3e
       0.3109836 0.23492108 0.17689219 0.13295726
000120 76 75 cc 3d 37 6f 99 3d b0 36 66 3d fb ac 2c 3d
       0.099833414 0.07491916 0.056204498 0.042157155
000130 5c 81 01 3d a6 3e c2 3c 42 ab 91 3c 49 7a 5a 3c
       0.031617507 0.023711514 0.017781857 0.013334819
000140 57 d6 23 3c 19 b9 f5 3b 5c 44 b8 3b 5d 2e 8a 3b
       0.009999833 0.007498872 0.0056233834 0.0042169527
000150 20 3e 4f 3b 03 69 1b 3b 20 15 e9 3a 8a c9 ae 3a
       0.0031622723 0.0023713715 0.0017782785 0.001333521
000160 6d 12 83 3a 8b 94 44 3a 16 6a 13 3a 25 17 dd 39
       0.0009999998 0.0007498941 0.0005623413 0.0004216965
000170 5f cb a5 39 14 a8 78 39 53 77 3a 39 71 d4 0b 39
       0.00031622776 0.00023713737 0.00017782794 0.00013335214
000180 40 51 0a 3f b0 54 3b 3f 0e 94 58 3f c6 92 69 3f
       0.5403023 0.731761 0.84600914 0.91239583
000190 6a 4e 73 3f f0 d5 78 3f 83 f6 7b 3f 28 ba 7d 3f
       0.95041525 0.9720144 0.9842302 0.99112177
0001a0 98 b8 7e 3f d1 47 7f 3f 68 98 7f 3f bd c5 7f 3f
       0.9950042 0.9971896 0.9984193 0.999111
0001b0 3c df 7f 3f 93 ed 7f 3f a3 f5 7f 3f 2c fa 7f 3f
       0.99950004 0.99971884 0.99984187 0.99991107
0001c0 b9 fc 7f 3f 28 fe 7f 3f f7 fe 7f 3f 6b ff 7f 3f
       0.99995 0.99997187 0.9999842 0.9999911
0001d0 ac ff 7f 3f d1 ff 7f 3f e5 ff 7f 3f f1 ff 7f 3f
       0.999995 0.9999972 0.9999984 0.9999991
0001e0 f8 ff 7f 3f fb ff 7f 3f fd ff 7f 3f ff ff 7f 3f
       0.9999995 0.9999997 0.9999998 0.99999994
0001f0 ff ff 7f 3f 00 00 80 3f 00 00 80 3f 00 00 80 3f
       0.99999994 1.0 1.0 1.0
000200 b7 c7 68 3f d9 5a 7f 3f 0a f2 66 3f 12 35 3f 3f
       0.9092974 0.99748 0.9021307 0.74690354
000210 1b 54 17 3f b6 d3 e9 3e f6 47 b2 3e 82 f0 86 3e
       0.5911271 0.45669335 0.34820527 0.26355368
000220 f9 6f 4b 3e d3 00 19 3e 88 d9 e5 3d ae 85 ac 3d
       0.19866933 0.1494172 0.112231314 0.08423935
000230 c8 70 81 3d ab 30 42 3d 5c a5 11 3d 50 75 da 3c
       0.063203394 0.047409695 0.03555809 0.026667267
000240 3e d4 a3 3c 54 b7 75 3c 9d 43 38 3c 0c 2e 0a 3c
       0.019998666 0.014997322 0.011246589 0.00843383
000250 dd 3d cf 3b e6 68 9b 3b 08 15 69 3b 80 c9 2e 3b
       0.0063245133 0.0047427295 0.0035565514 0.0026670396
000260 69 12 03 3b 88 94 c4 3a 14 6a 93 3a 24 17 5d 3a
       0.0019999987 0.0014997879 0.0011246824 0.0008433929
000270 5f cb 25 3a 13 a8 f8 39 53 77 ba 39 71 d4 8b 39
       0.0006324555 0.0004742747 0.00035565588 0.00026670427
000280 33 11 d5 be 51 4d 91 3d b2 e8 dc 3e 03 39 2a 3f
       -0.41614684 0.07094825 0.43146282 0.6649324
000290 ec 7b 4e 3f 69 be 63 3f a5 fa 6f 3f f5 f2 76 3f
       0.8065784 0.8896242 0.9374183 0.96464473
0002a0 a5 e5 7a 3f 4f 20 7d 3f f3 61 7e 3f 0e 17 7f 3f
       0.9800666 0.98877424 0.9936821 0.99644554
0002b0 f9 7c 7f 3f 4e b6 7f 3f 8e d6 7f 3f b1 e8 7f 3f
       0.9980007 0.9988755 0.9993676 0.99964434
0002c0 e5 f2 7f 3f a1 f8 7f 3f db fb 7f 3f ab fd 7f 3f
       0.9998 0.9998875 0.99993676 0.9999644
0002d0 b0 fe 7f 3f 43 ff 7f 3f 96 ff 7f 3f c4 ff 7f 3f
       0.99998 0.99998873 0.9999937 0.9999964
0002e0 de ff 7f 3f ed ff 7f 3f f5 ff 7f 3f fa ff 7f 3f
       0.999998 0.99999887 0.99999934 0.99999964
0002f0 fd ff 7f 3f fe ff 7f 3f ff ff 7f 3f ff ff 7f 3f
       0.9999998 0.9999999 0.99999994 0.99999994
000300 c3 81 10 3e de 3c 47 3f d7 45 7e 3f 63 21 74 3f
       0.14112 0.7782725 0.9932532 0.95363444
000310 c2 09 50 3f b8 24 27 3f 6d 2f 02 3f a7 68 c7 3e
       0.8126489 0.65290403 0.50853616 0.3894703
000320 6d 4e 97 3e e2 6d 64 3e d8 ee 2b 3e 2c 33 01 3e
       0.29552022 0.22307542 0.1679033 0.12617177
000330 c1 ff c1 3d 08 93 91 3d 4d 69 5a 3d c5 d1 23 3d
       0.09472609 0.07108122 0.05332308 0.039994974
000340 20 b9 f5 3c 49 47 b8 3c c7 31 8a 3c 49 44 4f 3c
       0.029995501 0.022494929 0.016869439 0.012650558
000350 11 6e 1b 3c 12 1d e9 3b a8 cf ae 3b 13 17 83 3b
       0.009486691 0.007114061 0.005334813 0.0040005534
000360 93 9b 44 3b 61 6f 13 3b 1b 1f dd 3a 59 d1 a5 3a
       0.0029999956 0.0022496807 0.0016870232 0.0012650891
000370 0d b1 78 3a 0e 7e 3a 3a 7e d9 0b 3a aa be d1 39
       0.0009486832 0.00071141205 0.0005334838 0.00040005642
000380 26 70 7d bf cd bf 20 bf a8 7f ed bd 63 18 9a 3e
       -0.9899925 -0.62792665 -0.11596614 0.3009673
000390 57 2f 15 3f a2 e7 41 3f 29 6d 5c 3f 37 c9 6b 3f
       0.5827536 0.7574407 0.86104065 0.92103904
0003a0 ef 90 74 3f 92 8c 79 3f 9e 5d 7c 3f 43 f4 7d 3f
       0.9553365 0.9748012 0.9858035 0.9920084
0003b0 4f d9 7e 3f 3b 5a 7f 3f c3 a2 7f 3f 90 cb 7f 3f
       0.99550337 0.99747056 0.9985773 0.99919987
0003c0 83 e2 7f 3f 6b ef 7f 3f ad f6 7f 3f c1 fa 7f 3f
       0.99955004 0.999747 0.9998577 0.99991995
0003d0 0d fd 7f 3f 57 fe 7f 3f 11 ff 7f 3f 7a ff 7f 3f
       0.999955 0.99997467 0.99998575 0.999992
0003e0 b5 ff 7f 3f d6 ff 7f 3f e8 ff 7f 3f f3 ff 7f 3f
       0.9999955 0.9999975 0.99999857 0.9999992
0003f0 f8 ff 7f 3f fc ff 7f 3f fe ff 7f 3f ff ff 7f 3f
       0.9999995 0.99999976 0.9999999 0.99999994

model.encoder.layers.0.self_attn.k_proj.weight f4 [64, 64]
000000 7d 0d a2 bc cd cb 10 3d 72 5d e4 3d f9 a0 7f 3d
       -0.019781822 0.03535061 0.11150636 0.062409375
000010 a9 a0 ca ba 7c 62 53 3d 79 86 f6 bb 1e e4 4e 3d
       -0.0015459257 0.051607594 -0.0075233546 0.05051052
000020 53 c8 8e 3a 63 3a b7 3c ce a9 90 3c 87 fb 4f bc
       0.0010893442 0.022366708 0.017659094 -0.012694246
000030 98 d2 12 bd 38 3e 8e bd cc 4a 4c bc 23 82 a9 3c
       -0.03584537 -0.06945461 -0.012469005 0.020691937
000040 07 b5 01 3d 0f db 83 3c 6f 25 80 3c 85 ea b8 3a
       0.03166678 0.016095666 0.01564285 0.0014107978
000050 9e 66 a0 bc 2a c9 b0 bc 1e 9f 8d bd c4 e5 55 bd
       -0.019580182 -0.021580297 -0.06915115 -0.052221075
000060 fd e6 b4 bc bc 32 4e 3d 14 ef 8d 3d 61 21 c9 3d
       -0.0220828 0.050341353 0.06930366 0.0982082
000070 6d 41 ba 3b b7 72 ad 3c db 7a ea 3d d0 db e2 3d
       0.005684069 0.021172864 0.11449214 0.11077082
000080 8a 82 ea 3c 69 46 03 3e e8 27 b9 3c c2 94 ba 3d
       0.028626699 0.12819828 0.022602037 0.091104046
000090 09 43 87 3c ff 15 5c 3c 41 b8 60 bc a3 e4 4e 3c
       0.016511457 0.013432979 -0.013715805 0.012627753
0000a0 c0 70 a2 b9 93 17 54 3d c1 20 96 39 21 24 4c bd
       -0.00030983053 0.051780295 0.00028634633 -0.049839143
0000b0 55 cc dc bc 1b 56 c1 3c 41 04 1f 3d 32 d6 92 3b
       -0.026952902 0.023600629 0.038822416 0.0044811005
0000c0 ca e0 db 3a 4b c5 0d 3d a5 9a 0c 3d ab b6 5c 3d
       0.0016775366 0.03461198 0.034327168 0.053885143
0000d0 e7 2f 08 3d 35 ab e9 bb 0e 86 8e bd 0e e1 a5 bc
       0.03324881 -0.007131005 -0.06959163 -0.020248916
0000e0 ab 27 6f bd 2e 50 c9 bd 87 80 9f bd 33 27 39 bd
       -0.05838744 -0.09829746 -0.077881865 -0.0452034
0000f0 ae aa 93 bd dc e0 a5 bd 8d 48 63 bd 96 6a 7e bd
       -0.07210289 -0.08099529 -0.05548911 -0.062113367
000100 7a a6 09 bc ad 9f 35 3d 55 4c a3 3d 21 e4 ca 3c
       -0.0084015075 0.04434173 0.079735436 0.024766983
000110 49 26 be bc c3 07 7e 3d 20 bd 48 bd 0c 57 a3 3d
       -0.023211615 0.06201912 -0.04900849 0.07975587
000120 bd 36 74 bb d2 eb 34 3d 90 ea ce 3c 5a de 7f bc
       -0.0037264072 0.04417021 0.025258332 -0.015616978
000130 b1 a9 7a bd d3 3c b4 3b 51 19 95 bc 49 ce 4a bc
       -0.061196987 0.005500415 -0.018200548 -0.012378284
000140 72 b7 60 3c 1f 17 d4 ba 0b 44 c9 3c 41 78 3a bd
       0.013715612 -0.0016181207 0.024568578 -0.04552484
000150 87 05 52 bd ac 66 2c ba 10 0d c0 bc 5d f9 dc bc
       -0.051274803 -0.00065765786 -0.023443729 -0.026974374
000160 bb 81 e1 bc 0d 7e d3 3c 2f 38 a7 3d da e1 bf 3d
       -0.02752768 0.025816942 0.08165013 0.0936925
000170 f1 33 49 bc a9 1c f7 3c d1 a5 ae 3d 45 04 c5 3d
       -0.01228045 0.030165033 0.08527721 0.09619955
000180 e2 80 c0 3c 5c 70 01 3e a3 67 c9 3c 0e f4 9d 3d
       0.023498956 0.12640518 0.02458555 0.07712565
000190 74 87 4d 3d 52 3e 5c 3d 59 b2 8e 3c bc 44 07 3d
       0.050178006 0.05377037 0.017419027 0.033024535
0001a0 53 e3 73 3d f8 98 1a 3d 3c 73 53 3c 5b 1d 35 bd
       0.059542965 0.03774354 0.012905892 -0.04421745
0001b0 48 3f 76 bd 8b c5 2f 3c c4 a4 7d 3b 52 2a b4 3c
       -0.060118943 0.01072825 0.0038702944 0.021992836
0001c0 15 0f 76 3c a2 7d ce bb 76 b5 21 3c 6a 59 15 3d
       0.015018244 -0.0063015977 0.009869924 0.036462225
0001d0 3d 21 50 3d ff 37 3c bd 87 a9 93 bd dc 02 b9 bd
       0.05081295 -0.04595184 -0.07210069 -0.090337485
0001e0 0b 1d 57 bd 60 a6 9b bd 46 22 21 bd 12 bf a7 bd
       -0.052517932 -0.07600093 -0.039339326 -0.08190741
0001f0 0a bc 8e bd 9d 54 80 bd 4f 2f 20 bd 9f fd 2f bd
       -0.06969459 -0.06266139 -0.039107617 -0.04296648
000200 af a3 94 bc 8d 84 66 3d 79 a5 f6 3c 64 65 dd bb
       -0.018144457 0.056278754 0.0301082 -0.0067564715
000210 24 de b4 3c 80 d4 5c 3d 5a 1b 13 bd bd f9 77 3d
       0.022078581 0.053913593 -0.035914756 0.060540903
000220 16 a7 45 3c 8a b8 87 bc 90 a5 07 bd 1e e7 0f bd
       0.012063762 -0.016567487 -0.033116877 -0.03513252
000230 47 b4 5d 3c 46 35 90 bc 82 46 43 3c e2 98 5c 3c
       0.013531751 -0.017603528 0.011918666 0.0134641845
000240 76 9e 84 3c 30 b2 d9 bb 8a 92 c0 bc 18 7a 6b bc
       0.016188841 -0.006643556 -0.023507375 -0.014372371
000250 f1 e4 d2 3b df ca 0a 3d 80 d4 4a bd f1 82 a1 3c
       0.0064359833 0.03388488 -0.049519062 0.019715758
000260 b9 a3 c2 3c ac bd ad 3c f2 27 6c 3d 82 95 05 3e
       0.02375971 0.021208607 0.057655282 0.13045314
000270 34 47 e6 3c 82 36 45 3d 65 cd e0 3c 0f 55 93 3d
       0.028110124 0.048147686 0.02744169 0.07193958
000280 d1 d9 9e 3b cd 44 a0 3c e9 40 e2 3c 46 0a 5a 3d
       0.004847743 0.019564057 0.027618842 0.053232454
000290 02 d8 52 3d 1e 02 15 b9 e0 d2 9b 3b 38 e9 88 ba
       0.051475532 -0.00014210536 0.004755363 -0.0010445481
0002a0 8d 69 b3 3d 2a 3f 8d 3c e4 71 27 bc 26 51 bd bc
       0.087603666 0.017242033 -0.010220025 -0.023109984
0002b0 54 08 3e bd c4 b9 cd ba 0e 8c 27 3d 00 6a a2 bc
       -0.04639466 -0.0015695621 0.04090505 -0.019825935
0002c0 c2 95 5f bb aa 5b e1 3a 39 3b aa bc 5e 7c f3 bc
       -0.0034116362 0.0017193456 -0.020780193 -0.029722389
0002d0 27 4d 97 3d c0 d3 8b bc d2 24 66 bd 6e e6 6c bd
       0.073877625 -0.017068744 -0.05618746 -0.057836942
0002e0 8e 5d 8b bd 7d 1f 99 bc ab f9 55 bd 53 0e 06 bd
       -0.068049535 -0.018691773 -0.052240055 -0.032728504
0002f0 e5 7a 1b bd e4 0d 78 bc 5c 58 89 bb 55 7d 92 3c
       -0.037959 -0.0151400305 -0.0041914415 0.017882029
000300 83 62 84 3c cd eb 0d bd 97 53 b3 3c fc 47 63 bc
       0.016160255 -0.034648705 0.021890445 -0.013872143
000310 03 7b 2a 3d 5c 78 9a 3c c6 ad 2e 3d 0f bf a9 3d
       0.04162122 0.01885622 0.042646192 0.08288395
000320 cc c7 5e 3d c0 e5 2b 3d f3 75 ef bc e4 b8 1a bd
       0.05438976 0.041967154 -0.029231047 -0.03777398
000330 df 54 7e bc f4 80 52 bd f2 8e c7 bd 93 4f e6 3c
       -0.0155231645 -0.05139251 -0.097440615 0.028114116
000340 8e 9f de 3b da aa e9 3d b9 f1 79 3d fd 16 6c 3d
       0.0067939227 0.114095405 0.06102154 0.05763911
000350 06 b6 52 bd 56 7f f0 bc 61 24 85 3c d4 e7 18 bd
       -0.051443122 -0.029357594 0.016252698 -0.037330464
000360 7e d1 cf bc 0d 54 34 3d ee 76 8f 3c a2 73 2c 3d
       -0.025368448 0.04402547 0.017512765 0.042102464
000370 b9 e1 fa 3b 81 6e c9 3d 28 bf fd bb 98 a4 89 3d
       0.007656303 0.0983553 -0.007743735 0.06720847
000380 fb 10 db 3c a8 c4 a6 3d 70 86 e5 3c 15 97 4b 3d
       0.026741495 0.08142978 0.028018206 0.04970463
000390 84 05 55 bd 64 8a 85 bc 51 b2 d2 bb ac 30 17 bc
       -0.052007213 -0.016301341 -0.0064299484 -0.009227913
0003a0 7f 2e 84 bd ec f0 ab 3d d4 8f 17 3e 06 fa 5f bb
       -0.06454181 0.083955616 0.1480096 -0.0034176125
0003b0 65 73 89 3d 61 b2 81 3d 73 f6 02 bb aa be bb bd
       0.06711463 0.06332851 -0.001998332 -0.09167226
0003c0 64 2b 9a bd b2 6e 27 3c 9a c1 81 3d 56 9f 98 3d
       -0.07527807 0.010219263 0.06335755 0.07452266
0003d0 ce 69 93 3d 8a d1 0d 3c aa c1 83 bd 65 c9 76 bc
       0.07197915 0.008655915 -0.06433423 -0.015062665
0003e0 9a 77 78 3c 0d ae 2a 3a 40 72 89 bc eb 97 62 bd
       0.015165234 0.0006510921 -0.016778111 -0.05532066
0003f0 98 cd 83 b8 ab 61 28 bd f1 eb 9a bb d9 a1 6b bd
       -6.2848616e-05 -0.04110877 -0.0047278334 -0.057527397

model.encoder.layers.0.self_attn.k_proj.bias f4 [64]
000000 c1 3c 89 38 79 1c dd 38 ac 16 40 39 67 80 a7 38
       6.5439854e-05 0.00010543405 0.00018318993 7.987097e-05
000010 fc 52 6d 36 e3 a2 0c 37 30 aa 48 39 af de 93 b8
       3.5364055e-06 8.382575e-06 0.00019136886 -7.050984e-05
000020 39 41 ec 37 89 6a 59 38 a4 43 a4 38 bd 35 29 39
       2.8163764e-05 5.183605e-05 7.8327284e-05 0.00016137115
000030 7e 72 0c b9 f9 92 4e b8 c1 19 88 38 43 ff 0a 39
       -0.00013394092 -4.9251106e-05 6.4897824e-05 0.00013255798
000040 2c 71 3f b8 1e f1 93 38 70 61 28 b8 3a 20 bb b8
       -4.5643348e-05 7.054418e-05 -4.0145067e-05 -8.9228575e-05
000050 38 9c f7 37 81 20 53 38 08 97 19 38 ed b9 83 b8
       2.951744e-05 5.033659e-05 3.66187e-05 -6.281198e-05
000060 e6 43 cf b8 f7 e2 8f 38 db 6c fc b8 8c b9 2f b8
       -9.883176e-05 6.861047e-05 -0.00012036572 -4.1896055e-05
000070 01 53 23 b8 c2 fd 2d b9 cd 83 77 b7 2f 3f 66 b9
       -3.893953e-05 -0.00016593098 -1.47530345e-05 -0.00021958047
000080 d7 fb ce b7 6d c4 7b b8 93 3b de b7 b2 02 05 b8
       -2.4674386e-05 -6.0026e-05 -2.6492204e-05 -3.171218e-05
000090 76 17 4a b8 7d 98 87 b8 b5 ae d2 b7 d7 79 ed b7
       -4.8182403e-05 -6.465705e-05 -2.5115305e-05 -2.8309338e-05
0000a0 99 45 09 b9 e1 91 c8 37 fe e7 f3 36 df 73 80 b7
       -0.00013091265 2.3909788e-05 7.268972e-06 -1.5312746e-05
0000b0 1c d6 45 38 8d 88 0d b7 65 fa 20 37 b6 19 88 37
       4.7167865e-05 -8.436048e-06 9.595043e-06 1.6224436e-05
0000c0 5a 9e 4b b5 08 7d be b7 e5 67 7e b8 e4 33 48 b8
       -7.5853825e-07 -2.2707987e-05 -6.065508e-05 -4.7732043e-05
0000d0 49 c5 52 b8 66 91 a7 b7 61 f4 ba b7 e6 54 e0 36
       -5.0251638e-05 -1.9975658e-05 -2.2286726e-05 6.6856037e-06
0000e0 09 4d ee b6 2f 9c 9c b7 50 1d 02 b7 e2 19 48 b8
       -7.101921e-06 -1.8669378e-05 -7.755429e-06 -4.770782e-05
0000f0 27 18 8a b7 71 9d d3 37 8c 85 23 37 11 e6 be 37
       -1.6462129e-05 2.5226474e-05 9.746651e-06 2.2756898e-05

model.encoder.layers.0.self_attn.v_proj.weight f4 [64, 64]
000000 30 d2 98 3d 6b 96 c4 bc 70 3b 3a 3c e6 d0 75 3c
       0.07461965 -0.023997506 0.01136671 0.015003419
000010 bb 4a b4 3c 05 5b f3 3b 72 19 aa bd f5 6d 6f bc
       0.02200829 0.007426622 -0.083056346 -0.014613618
000020 9f fd 02 bd 76 01 b6 3b 6b 4e cd 3d 68 50 37 3d
       -0.031980153 0.0055543734 0.10024723 0.044754416
000030 f0 6f 1c bc 65 dd d7 3c 54 94 99 3b 51 d2 1c 3c
       -0.009548172 0.026350686 0.0046868715 0.009571628
000040 80 3e 29 bd 62 e5 5c bd 41 ac 0b bd 97 84 43 3c
       -0.04131937 -0.053929694 -0.03409982 0.011933467
000050 7d 18 d0 bc 76 c2 81 bb df fe df bd b8 c0 22 bd
       -0.025402302 -0.003959949 -0.10937285 -0.039734572
000060 f2 ed 3a 3c 8d 61 8e bc ba 44 72 3c c0 a3 05 3e
       0.01140927 -0.0173805 0.0147868935 0.13050747
000070 0d d0 7e bc f8 e9 09 bc 9e 92 c8 3b a8 f1 a7 3c
       -0.015552533 -0.008417599 0.0061209938 0.020500973
000080 47 bf d0 3c 3f 60 33 3b 87 07 7f bc f5 de e4 bc
       0.025481833 0.00273706 -0.0155657595 -0.027938345
000090 ed 4b c0 bc 1d b0 a6 3b c4 84 9b 3c cd b9 cb 3d
       -0.023473704 0.0050869123 0.018984206 0.09947548
0000a0 7a bb b2 3b d1 11 9e 3c 36 01 dd bb df 2e ea bc
       0.005454478 0.019295605 -0.006744529 -0.028586803
0000b0 f1 15 fb bc 18 f9 9c bb 74 55 f9 3c 45 db b9 bc
       -0.03065011 -0.0047904365 0.030436255 -0.022687564
0000c0 80 bc 83 3c 89 5e b8 bc 59 bc bc 3c 25 5b 13 3c
       0.016081095 -0.022506015 0.02303903 0.0089938985
0000d0 69 3f 0e 3c 21 96 fd b9 ef 8e 21 bb f9 22 13 bc
       0.00868211 -0.00048367775 -0.0024651845 -0.008980506
0000e0 8d fc ed 3c ea 29 a2 bc 27 a4 29 bc eb 3d 42 3c
       0.02905109 -0.019795377 -0.010354078 0.011855583
0000f0 27 d9 f0 ba 76 82 63 3b 23 6a 59 3c 55 ea c9 bb
       -0.0018375263 0.0034715212 0.013269934 -0.0061619678
000100 db e1 b1 3b 4a f4 65 bc af 6a 00 bc 7a 81 f8 bc
       0.0054285354 -0.014035294 -0.007837935 -0.030335177
000110 55 ab bf 3c 4c 84 49 bc 4f 19 6b 3d 46 3b b3 3b
       0.023397127 -0.012299608 0.057397183 0.0054697124
000120 3b 45 58 bc 78 87 0d bb 31 97 cd bd 42 fe 6e bc
       -0.0132001 -0.0021595638 -0.10038603 -0.014586987
000130 76 91 0d 3d 8a de 41 bb 77 2e 81 bb 8b d8 ad bc
       0.03456255 -0.0029582107 -0.0039423066 -0.02122142
000140 ba d2 84 3d 78 24 cb 3c 2f b6 1d 3c 61 0a 73 3b
       0.064855054 0.024797663 0.0096259555 0.0037085044
000150 4b 4a 1e 3a fc b2 22 bc 2d ef ce 3d 58 93 29 3d
       0.0006038292 -0.0099303685 0.10104213 0.041400284
000160 af 27 66 bc 78 e1 38 bb 96 5f 52 bc 9e 39 0c be
       -0.014047547 -0.0028210562 -0.012840172 -0.13693854
000170 36 8c 0a 3d e4 bc 55 3c 9b f3 8e bc 86 1a 09 bd
       0.03382512 0.013045523 -0.017450145 -0.03347256
000180 e2 3a 31 3d fa a3 9a 3c d1 9b 18 3d b6 a3 80 bc
       0.043269046 0.018877018 0.037257973 -0.015703063
000190 10 62 72 3b 61 6c ed 39 ca fa 82 3c bc 21 5a bd
       0.003698472 0.0004528491 0.015988726 -0.053254828
0001a0 ff e1 8b bc e2 20 01 bd c9 b6 91 3c 0e 51 28 3d
       -0.017075537 -0.0315255 0.017787354 0.041092925
0001b0 52 21 37 3d fe 68 a2 bc b2 f4 31 bc 41 33 ad bc
       0.04470951 -0.019825455 -0.010861563 -0.021142604
0001c0 52 3b 58 bc 4f 61 d9 3b 8f d3 b5 3b 6a b0 53 bd
       -0.013197737 0.0066339145 0.0055489014 -0.051681913
0001d0 d3 aa 90 bc 50 3a cd bb a2 d9 c7 3c 7c e4 ac bc
       -0.01765958 -0.006263055 0.024395768 -0.021105044
0001e0 d2 85 83 3a 09 1b 52 3c 1b 77 58 bc 33 83 f0 3c
       0.0010034388 0.0128238285 -0.013211991 0.029359436
0001f0 b1 9d 8f bc 9c 68 9c 3c 5c f4 bb 3b 72 b1 ad 3b
       -0.017531248 0.01909285 0.005735917 0.005300694
000200 13 c7 46 bb 36 cb 87 bc fd fc c7 bb 02 1a 87 3c
       -0.003033106 -0.01657639 -0.0061031566 0.016491894
000210 bb e0 79 bc 33 3a ec bb d6 61 ce bc f3 ff 22 3c
       -0.015251334 -0.0072090863 -0.025193136 0.009948718
000220 cf 41 ef bc 6e ca de bc 08 4e a7 3d 00 6c 5e 3d
       -0.029206185 -0.027196135 0.0816918 0.054302216
000230 65 3b de bc c0 1e 1d bc f5 f3 e6 3c 54 63 c5 bb
       -0.02712793 -0.009589851 0.0281925 -0.0060238037
000240 32 28 34 bd ae 7a d5 bb 8b c3 27 3c 69 80 80 ba
       -0.043983646 -0.0065148687 0.010239492 -0.0009803894
000250 81 2e 5c 3c 1c a1 96 3c dc fa fe bc 10 22 96 bc
       0.013438822 0.01838737 -0.031125478 -0.01832679
000260 6f c5 07 3c 08 9a 8f 3c c9 f0 8d 3c ce 46 c2 3d
       0.008286818 0.017529503 0.01732673 0.09486161
000270 e1 ba 56 bc 15 4e aa 3c c9 2c d0 3b 38 7b dd 3b
       -0.013106079 0.020789186 0.006352995 0.0067590736
000280 b4 2e de bc 74 50 5d ba 95 ab 51 3c a5 30 91 3c
       -0.02712188 -0.00084424694 0.012797256 0.01772339
000290 f7 a5 00 bc a0 13 0b bd 7a d2 55 bc 30 57 5c 3d
       -0.007852069 -0.033954263 -0.01305067 0.053794086
0002a0 6a 72 19 3b fc ac 6e 3c 4a 86 01 bd df ed bb ba
       0.0023414143 0.01456761 -0.03162221 -0.0014337859
0002b0 9e 5b c6 bc 8f 23 3a bc ca 7a 46 3d c2 ad e2 3c
       -0.024213608 -0.011361017 0.048456945 0.027670745
0002c0 ab 4e d6 3c 20 34 a4 bc 5d 8e 65 bb e8 38 61 3c
       0.026160559 -0.020044386 -0.0035027482 0.013746478
0002d0 e7 a7 12 3d 10 42 d9 bb e8 0b 0e bc 5f c9 01 3d
       0.035804655 -0.0066301897 -0.008669831 0.031686183
0002e0 77 94 a4 3b 13 8e 28 3c a7 71 86 3b e7 4d 27 bd
       0.005022581 0.010287779 0.004102904 -0.040845778
0002f0 6a 5f bb bc b3 8a fa 3c 3f 7b 0a bc ce ad 1c bd
       -0.022872645 0.030583715 -0.008452236 -0.03825169
000300 1e 73 4f 3d 27 ff f3 bb d6 50 1f 3c 3d b4 50 3d
       0.050646894 -0.007446188 0.009723863 0.05095314
000310 d3 1c 92 3c ab b0 d9 bc 5b 6d 5f bd fe 4d b6 3c
       0.01783601 -0.0265735 -0.05454765 0.022253986
000320 f7 18 f3 bb 47 0a 83 3c 2d 12 ab 3d 94 bb 02 3d
       -0.0074187475 0.015996112 0.08353076 0.03191717
000330 51 a0 df 3c 17 66 60 3d 37 9e 53 3d b4 db c1 3b
       0.027298125 0.05478486 0.051664557 0.005916083
000340 bf 5d 42 bd af 69 7a bd 5e a7 a5 bc be 63 34 3d
       -0.047452684 -0.061135944 -0.020221408 0.044040434
000350 9a 16 1a 3c f9 3a 04 bd dc 72 be bd f9 00 22 bd
       0.009404803 -0.032282803 -0.092992514 -0.03955171
000360 27 89 9b bc a7 69 07 bc 2a 5e 37 38 d2 9b cf 3d
       -0.018986298 -0.008264936 4.3718297e-05 0.10137142
000370 58 ce 1e bc 8d 1c da bc 7d 40 ae 3c 69 4d 37 bc
       -0.009692751 -0.026624942 0.021270985 -0.01118789
000380 25 df 90 3c aa fe 3a 3c 31 d9 fa bb 23 75 c2 bc
       0.017684529 0.011413256 -0.0076552858 -0.023737496
000390 64 28 e5 bc cc 12 00 3c ff 39 a6 3c 85 75 d0 3d
       -0.027973361 0.0078169815 0.020291327 0.10178665
0003a0 1b 42 6e bc 15 5e 1e bc 31 35 8c bc ba d5 dd bc
       -0.014542128 -0.009665986 -0.017115207 -0.027079452
0003b0 df f2 83 bd 85 df aa bc 1f 4d 25 3c 73 f5 c5 3c
       -0.06442808 -0.020858536 0.010089188 0.02416489
0003c0 3d 14 35 3d 36 91 01 bc 36 d5 bb 3c 97 a7 03 3c
       0.044208754 -0.007908156 0.022928815 0.008035562
0003d0 aa 84 0c bc 5d c5 8a bc 5f cb 38 bc f8 4b 72 3c
       -0.008576551 -0.016939813 -0.011278956 0.01478862
0003e0 aa a7 55 bb bb 8b 2e 3c 8e c2 07 bd 39 32 4e 3c
       -0.0032601156 0.0106534315 -0.033144526 0.012585216
0003f0 73 3e f3 bb cd 84 8b 3c 6d a6 87 3c d4 99 a3 bb
       -0.007423216 0.017031098 0.01655885 -0.004992703

model.encoder.layers.0.self_attn.v_proj.bias f4 [64]
000000 55 d4 a1 3b ff 76 f4 bb 6a 04 34 3c 1f 7d 77 3b
       0.004938642 -0.0074604745 0.0109873805 0.0037763787
000010 95 c8 bb bb 68 5f 0d 3c 3a f3 b1 3b 1b 71 09 bc
       -0.0057306984 0.008628704 0.005430606 -0.008388783
000020 e3 19 b3 bb fd d9 fe 39 93 ae 55 bc 74 6c a4 3a
       -0.0054657324 0.0004860907 -0.01304211 0.0012544529
000030 80 90 24 bc 1a bb 20 3c 4d af b9 3c 0c 9c 06 3c
       -0.010044217 0.0098102335 0.022666598 0.008215915
000040 74 3e 7e ba de 2a 44 3c ea 36 21 3c 5f 6e d9 bb
       -0.00096986373 0.011973111 0.009839753 -0.0066354717
000050 76 67 03 bc 24 92 fb bb 9d 73 e7 bb 5d 9a 97 3b
       -0.0080202725 -0.0076773334 -0.0070633427 0.004626556
000060 27 24 48 bc c7 05 62 3b 9c c9 2e bb cc be d5 3b
       -0.012215651 0.0034488307 -0.0026670462 0.006522989
000070 92 e7 ab b8 66 bd a7 3b 0a b6 11 bc 41 a0 86 3b
       -8.197049e-05 0.0051190136 -0.008893499 0.004108459
000080 4e c9 82 bb ca 05 8d ba 94 55 a4 ba 93 44 54 3b
       -0.0039912825 -0.0010759172 -0.0012537711 0.0032389506
000090 10 7e 1f ba 70 12 c9 bb 10 37 f8 ba c4 f6 d8 3b
       -0.00060841534 -0.006136231 -0.0018937308 0.0066212136
0000a0 96 c5 53 bb 08 2b b2 3b 58 fc 19 3a ec 5a a7 3b
       -0.0032313815 0.0054372586 0.0005874089 0.0051072743
0000b0 c9 f3 b2 bb f8 61 2e ba 98 a0 42 3a 44 8b 4c ba
       -0.0054611904 -0.0006652172 0.0007424443 -0.00078027346
0000c0 67 c2 1a bc 17 23 92 bb eb 51 92 39 71 4b f4 b9
       -0.009445763 -0.0044597494 0.00027908324 -0.00046595515
0000d0 34 22 c3 bb 9a c8 2e bb bc bf 68 bb 1a b9 c4 bb
       -0.005955005 -0.002666986 -0.0035514673 -0.006003511
0000e0 95 ce e1 3a 43 6f 87 ba 7a aa e2 bb 21 16 83 bb
       0.0017227704 -0.0010332841 -0.006917295 -0.0040004407
0000f0 6b aa 2c 38 cf e8 32 bb 90 58 39 3a 1c bf eb bb
       4.116671e-05 -0.002729941 0.0007070387 -0.007194413

model.encoder.layers.0.self_attn.q_proj.weight f4 [64, 64]
000000 ba 3c a3 bb 84 a9 a4 bc c6 9f e3 bc 14 75 14 bd
       -0.0049816044 -0.020100363 -0.027786147 -0.036244467
000010 d5 1a a2 bc c7 09 03 bd 04 35 d5 3c 75 7a 3c bc
       -0.019788185 -0.031991746 0.026026256 -0.011503805
000020 64 c4 84 bb 62 7a 1e bc fd d1 84 bd e7 ca 31 bd
       -0.004051732 -0.009672733 -0.064853646 -0.043406393
000030 17 95 1b 3d fa c9 91 bc 09 5a 83 3d b2 14 2a 3b
       0.03798398 -0.017796505 0.06413657 0.0025952277
000040 91 3e 47 bc 9c 27 14 bd ea ae 0a 3d 7c 97 b2 3c
       -0.012160913 -0.036170587 0.033858217 0.021800749
000050 ab 8d ee 3c a2 35 a0 bb f1 94 c6 3d dd 3d 17 3d
       0.029120287 -0.004889206 0.09696377 0.03692423
000060 34 32 54 3d e1 59 41 bd 12 75 19 bd 7b e2 7f bd
       0.05180569 -0.047204856 -0.037465163 -0.062471848
000070 2b 3b 81 bb 71 8c f5 bc c6 e3 98 bd 1f ff 4f bd
       -0.003943821 -0.029974194 -0.07465319 -0.05078041
000080 0d 88 4c 3d e1 ad 95 bc 4d ee be bc 56 40 1a bd
       0.049934436 -0.018271388 -0.02330699 -0.03765901
000090 35 28 d0 bb 34 c3 d4 bc 99 ff 81 bb f7 fd 30 bd
       -0.0063524493 -0.025971986 -0.003967237 -0.04321095
0000a0 b3 fc 65 bc 72 d3 76 bc fa 01 8f bd 85 ca ee 3c
       -0.014037299 -0.015065061 -0.06982799 0.029149303
0000b0 7f f6 5d 3c c8 4f a0 3b 83 54 4d bd b3 d2 2d bc
       0.013547539 0.004892323 -0.050129425 -0.010609317
0000c0 17 e5 04 3d 6b 18 71 bc 48 3a bd bc 39 40 c4 bc
       0.03244504 -0.014715294 -0.02309908 -0.023956405
0000d0 ff 83 98 bd 47 a9 3e 3d 56 39 36 3d a0 97 89 3c
       -0.07447051 0.046548154 0.044488274 0.016795933
0000e0 9a b4 03 3d 24 f1 10 3d 7f 3d a0 ba f7 19 29 bc
       0.032154657 0.03538622 -0.0012225359 -0.010321132
0000f0 30 28 f2 3b 9f 6b 8e 3c 6e 90 98 3c 6f 1a 63 3d
       0.0073900446 0.017385302 0.018623557 0.05544513
000100 ac d3 b1 3c 14 69 37 bc 8d 32 c6 bb 76 3a 12 3b
       0.021707378 -0.011194486 -0.0060485066 0.0022312677
000110 64 4d a5 bc 4c 76 19 bd 30 01 2a 3d 57 fa f0 bc
       -0.020178504 -0.037466332 0.04150504 -0.029416246
000120 ed 43 51 3a 19 92 c5 3c ff 19 35 bd 1e 17 3d bd
       0.0007982839 0.024117516 -0.044214245 -0.046164624
000130 fa 3f 08 3c eb 7d 52 3c b1 aa a0 3c 2a 4e 68 3d
       0.008316034 0.012847404 0.019612642 0.056715168
000140 1c 75 f7 3b b0 61 55 bd 4b 9d 71 bc 67 8b eb 3c
       0.0075518023 -0.052095115 -0.014746974 0.028752996
000150 d6 37 e3 3c 4e 73 14 bd ed 67 a9 3d 3f 89 e1 3c
       0.027736586 -0.036242776 0.082717754 0.027531264
000160 50 14 e3 39 ff 8f 9f bd bd ce 65 bd 3f c4 1c bd
       0.00043311948 -0.07791137 -0.056105364 -0.038273092
000170 fa f2 bf 3c 79 97 03 bd 5d 65 6e bd f7 ea 89 bd
       0.02343129 -0.032126877 -0.058202136 -0.06734269
000180 23 5b 18 3d 24 93 1c b7 cb 3c 3c bc da fb ca bc
       0.03719629 -9.332583e-06 -0.011489104 -0.024778295
000190 aa cf 6b bd 8e 34 61 bc 11 dd 2e 3d b1 aa fc bc
       -0.05757109 -0.01374544 0.042691294 -0.03084311
0001a0 67 8b ca 3b 83 ac 9b bc a7 bf 4e bd 5d 36 96 3c
       0.006181169 -0.019003158 -0.050475743 0.01833647
0001b0 55 b8 d3 3c 5b a5 9b 3c 47 c9 7e bd fc ef 70 bc
       0.025844732 0.018999746 -0.06220367 -0.014705654
0001c0 37 5e b9 3c 74 ac 72 3c da a6 0e bd 16 22 55 bb
       0.022627933 0.014811624 -0.03482709 -0.0032521538
0001d0 71 ad 94 bd 5d 25 4d 3d 4c f2 2c 3b a1 bb 68 3d
       -0.07259644 0.05008446 0.0026389537 0.056819562
0001e0 ed 31 4a 3c 35 85 2a bb 93 79 08 3c 18 ed 17 bc
       0.012341005 -0.002601934 0.008329767 -0.009272836
0001f0 87 cd c8 3c 66 87 87 3b 2f f0 db 3b fd 1f 14 3d
       0.024512066 0.004136014 0.0067119817 0.03616332
000200 04 1f 64 3c db 0c f6 bc c0 9c 2c bd 22 e8 be bc
       0.01392341 -0.030035427 -0.042141676 -0.023304049
000210 16 53 f9 bc 39 5b f9 bc d7 42 38 3d 3d 2f 43 bd
       -0.030435126 -0.030439006 0.04498562 -0.04765247
000220 d4 51 33 bd 86 3f 3f bd fb 2c bb bc 9f 91 08 bd
       -0.04377921 -0.04669144 -0.022848597 -0.033342
000230 1e f1 bd 3c a1 19 90 3b 2f 2b 54 3b 52 78 55 3d
       0.023186263 0.0043975865 0.0032374372 0.0521167
000240 fd 93 1d 3d c6 2a 40 bb 86 4b c8 3c 81 30 57 3c
       0.03847121 -0.002932237 0.024450075 0.013134123
000250 38 e0 6c bc 79 71 28 bd da 65 5d bb c8 8d 0c 3d
       -0.014457755 -0.04112384 -0.0033782632 0.0343149
000260 43 d8 30 3d 7f 60 9f bd 15 05 12 bd ff a8 0b bd
       0.043174993 -0.07782077 -0.035649378 -0.034096714
000270 e2 7b 70 3b a0 6d 92 bd 14 0f 6d bd 59 e6 86 bd
       0.0036694934 -0.071498156 -0.057875708 -0.06586904
000280 06 0a d5 3c 41 0e 8b bc 8d 2d 28 bc 4e b0 f5 bc
       0.026005756 -0.01697457 -0.010264766 -0.029991295
000290 24 8a df bc 62 fd 44 bd fd b7 8e bc 3a fb 31 bd
       -0.02728755 -0.048093207 -0.017421717 -0.04345248
0002a0 59 f8 fc bc 3a 6d 09 bd d4 8c 45 bb 89 b2 8b 3d
       -0.03088014 -0.033551432 -0.0030143755 0.06821162
0002b0 31 d0 55 3c 71 03 24 3d a2 4c 89 bd 5d f5 6f bd
       0.013050125 0.040042344 -0.0670407 -0.058583606
0002c0 2f 22 06 bb 12 4c 60 bc a5 a8 2d bb c4 ee 6a 3c
       -0.0020467152 -0.013690012 -0.0026498225 0.014339153
0002d0 e7 30 53 bd e6 df b8 3c e0 42 e3 3c ef d0 f1 3b
       -0.05156031 0.0225677 0.02774185 0.007379643
0002e0 e8 1e 5e 3d cc 10 bc 3c be 2c 22 3d 85 a7 d0 3c
       0.054228693 0.022957228 0.03959345 0.025470505
0002f0 6b 40 0e 3d 16 24 9c 3b 8a a9 36 3c c7 56 31 bb
       0.034729403 0.004765044 0.01114882 -0.002705978
000300 a6 1e 07 bd 9d ff 5c bd 51 b0 01 bd 5f b8 8a bd
       -0.032988213 -0.05395471 -0.03166229 -0.06773447
000310 8f d3 8e bc 46 6c 4f bd 2b 6f e0 bc 95 de ec bc
       -0.017434863 -0.050640367 -0.027396759 -0.02891473
000320 c1 d6 bd bd 7f 1f 70 bc 73 cb 5d bd be 11 f4 bd
       -0.09269477 -0.014655947 -0.054149102 -0.119174466
000330 a6 f3 fb bc bd 66 60 bd 82 5e 3e 3e 38 4a 89 3d
       -0.030755829 -0.05478548 0.1859074 0.06703609
000340 01 c8 ea bb 48 fe b0 bc ed 53 59 3d 65 ff 00 3e
       -0.0071649556 -0.021605626 0.053058553 0.12597425
000350 37 c7 a8 3d ae 27 9b 3d cd 20 24 3c 54 68 7e bb
       0.08241122 0.07575928 0.010017586 -0.0038819509
000360 06 2d ec 3c 61 7a e7 bb 5c a4 88 bd d3 ed a8 3b
       0.028830063 -0.0070641492 -0.06671974 0.005155304
000370 da 82 8b bc 88 6d bb 3c 52 06 4b bc 2c 3e e6 bc
       -0.017030168 0.022879377 -0.012391644 -0.028105818
000380 f6 f0 e9 bc 27 88 6f bd 85 64 5e bd db ff 89 bd
       -0.028557282 -0.058479454 -0.05429508 -0.06738254
000390 21 f3 2c bd 8c be 5c bc 67 14 99 bd 53 68 38 3c
       -0.042224053 -0.013473164 -0.074745946 0.011255342
0003a0 b6 21 84 3b 1e 41 20 3c 30 14 85 3d 0c 75 93 39
       0.004032339 0.00978115 0.06497991 0.00028125232
0003b0 fb 68 97 bb 3e 2e 27 bd 28 57 92 bd 32 66 02 3d
       -0.004620669 -0.040815584 -0.0714553 0.031835742
0003c0 2d 72 cc bd 06 b7 0c bd 60 0e 57 bd 0e 10 35 bd
       -0.09982715 -0.034354232 -0.052503943 -0.044204764
0003d0 13 43 1b 3d 8d a1 89 3d ae 3b e9 3d 0a 99 f6 3d
       0.037905764 0.067202665 0.11388336 0.12040909
0003e0 9b 00 e0 3d b6 b6 08 3e 63 cc 24 3e 19 8e a5 3d
       0.109376155 0.13350949 0.16093592 0.080837436
0003f0 8a 44 25 3e 65 b6 fd 3d a5 85 26 3e ca 8b a5 3d
       0.16139427 0.123883046 0.16261919 0.08083303

model.encoder.layers.0.self_attn.q_proj.bias f4 [64]
000000 97 d4 0e 3a 96 35 fb 3b 5f 62 9a bb a7 29 06 3d
       0.00054485485 0.0076663 -0.004711434 0.032754567
000010 30 1e 1f bc 83 3d 80 bb ac 38 ad ba 0f c1 fc bb
       -0.009711787 -0.003913583 -0.0013215742 -0.007713444
000020 ce 12 ec 3a 9f 91 05 3c 42 1a 43 3c 8d cc 2a 3b
       0.0018010975 0.008152395 0.011908116 0.0026061863
000030 99 c9 e7 ba 9e 6d 89 39 09 fe 74 3c 06 3a 80 3b
       -0.0017683982 0.00026212347 0.014953145 0.003913167
000040 9d c5 c2 bc a5 c3 e2 ba 4c e1 2a bc fe a1 3d 3c
       -0.02377587 -0.0017300738 -0.0104296915 0.0115742665
000050 d8 a8 9c bb 09 a8 87 bb 62 8b ef 3b 9b 9c 66 bb
       -0.00478087 -0.0041399044 0.007310317 -0.003518856
000060 a5 4d d8 3a a2 5d 17 ba 14 35 96 bc c3 0d c5 bb
       0.0016502632 -0.0005774145 -0.018335856 -0.0060136034
000070 eb 0a ee ba 8e 72 1b 3c 19 04 02 3c 44 8d 56 3b
       -0.0018161213 0.009487761 0.007935547 0.003273801
000080 75 d0 03 bd 53 ac fe bc b7 6c 4b 3c 04 3a 1b bc
       -0.032181222 -0.03108803 0.012416056 -0.009474281
000090 50 9e 17 bd 1f 12 ed 3c 2f 81 43 bd b3 37 b5 3c
       -0.037016213 0.028939305 -0.04773062 0.022121286
0000a0 7e 23 5d bd 46 e7 07 3c ac 20 61 bc 7d fb 84 bc
       -0.053988926 0.008294886 -0.0137407 -0.0162332
0000b0 e7 6d b0 bc 36 aa 9d 3c 25 a1 1b bd c6 ea 25 3d
       -0.02153678 0.019246202 -0.037995476 0.0405071
0000c0 44 4b e4 3c a4 74 df bc f2 80 1a bd ab a7 11 3d
       0.02786792 -0.027277298 -0.037720628 0.03556029
0000d0 8a 6e 1f 3d 05 f1 c7 bc 38 4d 60 3c 93 ee bd bc
       0.038923778 -0.02440692 0.013690285 -0.02318505
0000e0 9b 85 9e bb ad 7e 3f bc c3 10 23 3b ab 42 93 bc
       -0.0048377044 -0.011687917 0.0024881817 -0.017976126
0000f0 65 42 66 bc 72 8f c0 bb 28 96 a6 3c 52 fc 4f bc
       -0.014053916 -0.005876475 0.020335272 -0.012694435

model.encoder.layers.0.self_attn.out_proj.weight f4 [64, 64]
000000 49 aa c9 3c 6c 1d 37 bc 27 dd c9 bb 96 c7 1b 3c
       0.024617331 -0.011176448 -0.0061603966 0.009508034
000010 29 02 d9 3a e0 f7 d0 3a b1 d5 70 bb af 1f 36 bc
       0.001655643 0.0015943013 -0.0036748464 -0.011115952
000020 af 82 0b bd 99 83 1b bd 44 8d 4c 3c 59 83 be bc
       -0.034060176 -0.0379673 0.012484852 -0.02325599
000030 b2 26 cb 3c 06 e3 b5 bc 6d 43 51 bd d7 0c 05 bd
       0.024798725 -0.02220298 -0.051089693 -0.03248295
000040 04 a5 0c bd 35 b4 a4 bc d6 4c d7 bc 17 a1 5f 3d
       -0.03433706 -0.02010546 -0.026281755 0.054596987
000050 fd 31 38 3c cd 4a 54 3d 59 02 bb 3c 77 dc 83 bd
       0.011242387 0.051829148 0.022828268 -0.06438535
000060 19 bb 36 3b 7a 0a 4d bc 63 87 0a bd a5 3d 06 bc
       0.0027882515 -0.012514705 -0.03382052 -0.008193408
000070 bf ed 21 3d e6 a4 ff 3c 8f 95 50 3d 10 1a f2 bc
       0.039533373 0.03120656 0.05092388 -0.029553443
000080 4c 17 7d 3d 79 0c 6d 3d f1 26 f3 3c 7e 62 78 bc
       0.061789796 0.057873223 0.029681655 -0.015160201
000090 a0 7e b1 bc 78 c2 f1 3b 81 e9 0e bd 5a 03 7e 3d
       -0.021666825 0.007377919 -0.034890655 0.062014915
0000a0 a0 dd bf 3c 59 cf 8a 3b 68 d3 ee 3c 11 c7 96 bd
       0.023421109 0.0042361435 0.02915354 -0.07362188
0000b0 6f dd d9 bb 77 fe 0b bd bb de 96 3d 57 a6 2a bd
       -0.0066487114 -0.034178223 0.07366701 -0.04166254
0000c0 ef 73 a9 bc 50 9a 06 bd 38 8d 75 3d be 00 4c bd
       -0.020685164 -0.032862008 0.05994913 -0.049805395
0000d0 f3 ff 19 bc 80 9a a2 bc 15 e5 4e 3d 41 5a 49 bc
       -0.009399402 -0.019849062 0.05051144 -0.012289585
0000e0 9e 31 e4 bc a6 9b 94 bd bc d3 0d 3c 6b 24 bd bb
       -0.02785569 -0.0725625 0.008656438 -0.0057721636
0000f0 de 59 4a 3d 40 ea d9 bc 42 43 3f 3d 1c 93 2e bd
       0.04940211 -0.026600957 0.046695 -0.042620763
000100 b1 0f 8a bd 85 1b 96 3d 73 d2 c0 bc 91 ea 43 bd
       -0.06741274 0.07329468 -0.02353785 -0.04783112
000110 a3 ce 1f 3d 86 cb f8 bc e9 e5 04 bd cf f5 d3 3d
       0.039015424 -0.030370485 -0.032445822 0.10349619
000120 c9 13 bc 3c 85 a9 14 bd b0 fa 6f 3d aa 94 1e bd
       0.022958653 -0.03629448 0.058588684 -0.038715996
000130 df f4 7b 3d e1 cf a1 bc 42 89 d7 bb 8d 86 1f bd
       0.061512824 -0.019752445 -0.0065776417 -0.038946677
000140 f0 f2 72 bd c8 c0 7f bd 98 ea 13 bd 41 98 71 39
       -0.059313715 -0.06243971 -0.036112398 0.0002304027
000150 16 52 3a 3b 31 36 21 3d b4 38 8e 3d 48 b4 6f bd
       0.0028430275 0.03935832 0.06944409 -0.05852154
000160 f4 0b 95 3d 35 20 7a 3c a1 4f 8a 3c d9 11 06 bd
       0.072776705 0.015266468 0.016883673 -0.032731865
000170 37 8c ea 3c c2 a7 bd 3c d1 08 12 3d e6 95 be bc
       0.028631313 0.023151282 0.03565294 -0.023264837
000180 70 33 57 3d bd f3 18 3d f1 d3 64 ba 7e 42 15 bb
       0.05253929 0.037341822 -0.00087290915 -0.0022775228
000190 ff 12 1a 3d 85 ab 47 3d d6 a0 80 bc c1 5f 52 3d
       0.037615772 0.04874756 -0.015701693 0.05136085
0001a0 a3 40 0b bd 5d 7d f7 b9 87 e5 9e 3c 41 3f 81 bc
       -0.03399719 -0.00047204914 0.019396557 -0.015777232
0001b0 30 02 01 3d 2d 27 33 3c 72 5e b0 3c c8 e9 9d bc
       0.031496227 0.010934633 0.02152941 -0.019276515
0001c0 02 fa 44 bd c8 19 a2 bc 26 d0 3d bc 90 a0 3c bd
       -0.04808999 -0.019787684 -0.011585271 -0.04605156
0001d0 6c aa 34 3d ad 86 f3 3c e7 29 23 3d 85 bb 98 bb
       0.04410784 0.029727304 0.039834883 -0.004661026
0001e0 b5 a9 45 3d b3 eb 73 3c f5 8d 36 bd d0 89 72 3c
       0.04825755 0.014887738 -0.044568975 0.014803365
0001f0 d6 b8 ad 3c 40 25 5f 3d 89 bb d4 bc aa 5d cb 3c
       0.0212063 0.054478884 -0.02596833 0.024824936
000200 04 55 53 bc cd 7d 08 bc 7c 34 88 bc cd db b9 bc
       -0.012898687 -0.0083307745 -0.016626589 -0.022687817
000210 37 74 42 3c 80 2d 4a 3c 27 52 fb 3c e9 d3 a5 3c
       0.011868528 0.01233995 0.030678822 0.020242648
000220 d1 6e 7c 3c 32 56 ed bc 44 a7 9c 3b 71 8b d5 3c
       0.01540728 -0.028971765 0.004780682 0.026067467
000230 5f 27 21 bd a2 b4 90 ba c5 ff a4 3c 1c 0d dc 3c
       -0.039344188 -0.0011040161 0.020141492 0.02686172
000240 f3 46 30 bb 3d a5 f7 ba 1a e2 48 3c 94 92 2a 3c
       -0.0026897758 -0.0018893849 0.012260938 0.0104109235
000250 e9 45 eb bc 46 34 bd 3b 23 29 1b 3c df 2a 51 bc
       -0.02871986 0.0057740537 0.009470257 -0.012766569
000260 89 93 68 3c e2 b5 11 bd 41 af 56 bc dc 33 02 3d
       0.014195331 -0.035573848 -0.013103307 0.03178774
000270 fb e2 5e bb 9f 3f a0 bc e2 8e d8 3c b1 2d d2 3c
       -0.0034009803 -0.019561587 0.02643532 0.025656553
000280 a1 fc ca bc 46 31 6c 3c c3 a5 77 bd c6 13 18 3d
       -0.024778666 0.014416045 -0.060460817 0.037128232
000290 ad a4 4e 3d 83 9d 11 bb 6e 46 2f bb 56 8e b9 ba
       0.050450016 -0.0022219128 -0.002674486 -0.0014156799
0002a0 90 83 00 bd 7b 77 2f bc d9 a0 a4 3b 45 fc 59 3c
       -0.031375468 -0.010709639 0.0050240573 0.013304775
0002b0 54 d8 34 3d 84 7a fe 3c 38 7a 3f bd 65 6d 8e 3c
       0.04415162 0.03106428 -0.046747416 0.017386148
0002c0 eb 0d 6a 3c 38 25 40 3d 16 31 1c bd a4 94 1a 3c
       0.014285545 0.046910495 -0.03813275 0.009434853
0002d0 ba c7 a7 3a 32 e0 53 3d 02 bd 3d bb 68 9a e7 3c
       0.0012800612 0.05172748 -0.0028951769 0.028271869
0002e0 41 e6 92 3d cd 53 2f 3d c9 5b 9a bc cb 15 5d 3b
       0.07172824 0.042804528 -0.018842595 0.0033734913
0002f0 49 26 31 bd 15 28 73 3d 3f 58 4f bd 44 1d 5d 3d
       -0.043249402 0.059364397 -0.050621267 0.053982988
000300 1a 07 f8 bc d2 28 db 3a 68 02 d3 bc e3 7c 34 bd
       -0.030276824 0.001672054 -0.025757983 -0.044064414
000310 32 37 ff 3c 8a 54 ab bc 29 19 3b bd 78 ee de 3c
       0.031154249 -0.020914335 -0.04567829 0.02721332
000320 17 aa a9 3c b7 b3 a4 bc d4 7e 14 3d 02 db af bc
       0.020710988 -0.020105226 0.036253765 -0.021466736
000330 ce 68 42 3d 20 60 39 bd 85 61 4c bd 99 f0 4d bc
       0.04746323 -0.045257688 -0.04989769 -0.01256957
000340 82 7a 8c bd 61 a4 0d bd d8 7a 39 bd cd 57 c2 bc
       -0.06859304 -0.034580592 -0.04528317 -0.023723507
000350 4c 8a 94 3c 5c ba 32 3d 38 75 a6 3c 3a ec a5 bd
       0.018132351 0.043634757 0.020319566 -0.08101697
000360 3a 2f 1c 3d 32 46 c7 3b ce 38 8e bc 6d 8d bc bc
       0.038130976 0.006081366 -0.017361071 -0.023016656
000370 f5 87 6d 3d a8 d4 a5 3d 50 23 56 3d d6 16 8f bc
       0.057990987 0.080972016 0.05227977 -0.017466944
000380 7c e4 75 3d a9 46 53 3d 65 48 b9 3d c8 b6 f1 bc
       0.060032353 0.05158106 0.09047011 -0.029506102
000390 dd 9e 43 bd 1e 6d 22 bd 4e d4 92 bd bd 57 ba 3d
       -0.047758926 -0.039654844 -0.071694 0.09098766
0003a0 a3 0d 35 3d e6 45 5b 3d 77 25 72 3d 36 5e 8a bd
       0.044202458 0.053533457 0.05911776 -0.067562506
0003b0 68 0c a4 bd 6d 41 8c bd 84 f9 0b 3d e2 55 a7 bd
       -0.08010179 -0.068484165 0.034173504 -0.08170678
0003c0 14 c0 08 bd 0a f2 76 bd de fa bf 3d e4 71 cc bd
       -0.033386305 -0.06028942 0.09374021 -0.099826604
0003d0 66 d0 20 bd f7 91 a8 bd 97 5c 49 3d 8f e0 7d bd
       -0.039261244 -0.082309656 0.049160566 -0.061981734
0003e0 53 72 af bc e6 73 53 bd 5f 44 32 bd 9a 26 c7 bc
       -0.021416819 -0.0516242 -0.043522235 -0.024310399
0003f0 47 0c 67 3d 36 0a 24 3d ff 7a 16 3d 86 34 a5 bc
       0.056408193 0.0400488 0.036738392 -0.020166647

model.encoder.layers.0.self_attn.out_proj.bias f4 [64]
000000 1c 49 3e bb 44 86 da 3a 5b 3f b4 3b 6c 74 a4 3b
       -0.0029035276 0.0016672094 0.0055007166 0.0050187614
000010 de 72 d6 bb 65 3d 00 3b 0c 97 a5 bc 96 7e f0 ba
       -0.006544455 0.0019567844 -0.020213626 -0.0018348272
000020 4c e3 58 bb a2 3a ad bb 1b d3 a1 3c a1 b9 30 ba
       -0.0033094464 -0.0052865306 0.019753983 -0.0006741528
000030 3c 7f f5 ba 14 0a fb ba 98 0e 1b 3a 29 5f 89 3b
       -0.0018729935 -0.0019152784 0.00059149554 0.004192252
000040 e6 4a b7 bc 71 2d 9d bb 9a 0a be 3b 0d 03 d1 3a
       -0.022374582 -0.004796677 0.0057996036 0.0015946344
000050 0d a0 71 3c 4b f6 fd bb 4f 72 92 bc 67 92 55 3c
       0.014747632 -0.0077503077 -0.017876772 0.013035393
000060 6f 35 b9 3b 16 7d 9f bb a1 36 3a bc 00 81 93 3c
       0.0056521217 -0.0048672063 -0.011365564 0.018005848
000070 22 26 ac 3b fa 82 4c 3b 67 53 a8 3b b4 da be ba
       0.005253569 0.0031205998 0.0051368955 -0.0014561028
000080 8b ae be 3b ff da c3 bb 4f b5 2a bc d4 d5 aa ba
       0.005819147 -0.005977034 -0.010419204 -0.0013033696
000090 5d cc 2e ba ca 73 5f bc e8 a7 fa 3b b2 dd 16 3c
       -0.0006668026 -0.013638446 0.0076494105 0.00920813
0000a0 e5 36 25 ba 2f 5e 05 bc 1e 52 a6 38 f5 f2 83 bb
       -0.00063024304 -0.008140131 7.930792e-05 -0.0040267655
0000b0 a9 16 e2 bb 06 22 f5 3b 0a 35 98 3c 8c 66 b2 3a
       -0.006899674 0.0074808626 0.018579978 0.0013610884
0000c0 68 21 e4 ba 2b f6 1a bc c5 a8 44 bc 26 78 e3 3b
       -0.0017404975 -0.009458105 -0.012003128 0.006941813
0000d0 59 ac 50 bb 10 9d b6 3b 3f e6 3f 3c ae b3 1c 3a
       -0.0031841008 0.0055729225 0.01171261 0.0005977702
0000e0 6c 09 83 3b 5e 7e 0b bb b9 55 0a 3c 13 dd b3 3b
       0.003998926 -0.0021285038 0.008443289 0.0054890006
0000f0 72 d4 1a 3c c8 29 a7 3b 26 92 e1 3b 85 0d 23 3b
       0.009450065 0.0051014163 0.0068838773 0.0024879884
