learned_model_weights/CVAE_weights.pth (torch, 45766 bytes, 14 tensors)

encoder.0.weight f4 [64, 7]
0.030198533 0.32675397 -0.008152473 -0.113447756 0.03378596 -0.081397116 -0.059949536 -0.007433285
0.091509625 0.43251434 -0.060480963 0.010438995 0.041542023 0.095052466 -0.24217427 -0.16310933
0.40352455 -0.107356206 0.056998946 0.13029158 0.11476798 0.011595169 0.28836107 0.12168087
0.32807335 -0.026308814 -0.09138066 -0.043850437 -0.20242874 -0.19271949 -0.057566468 0.1448756
-0.016617352 0.006537462 -0.027829463 0.26630583 -0.32950088 -0.20865351 0.15415986 0.091815785
0.004636308 -0.037714254 -0.20355037 0.3104784 0.18664125 -0.14728782 -0.0470882 -0.03936192
0.023893442 -0.19137019 0.17429093 -0.2184502 0.3722758 0.01508938 0.021363443 0.07045352
0.3645331 -0.21229056 -0.14785622 -0.38737407 0.089827254 -0.068381675 -0.052227005 0.2111951
0.21418664 0.018918017 -0.25551182 0.012588509 0.07076145 -0.028131595 -0.1738983 -0.27599034
0.12061635 0.13302001 0.02241304 -0.26282707 -0.17819652 -0.25085795 -0.18320978 0.19167568
0.15945867 0.091606885 0.2678774 -0.024438499 -0.20810328 0.30624038 -0.0010917718 -0.20452705
-0.043645486 0.19126303 -0.079864256 -0.15406638 -0.21999052 -0.27130947 0.29213667 0.06784961
0.056936055 -0.0053482777 0.11988897 0.38695273 -0.182213 -0.21192046 -0.043855503 0.058530778
-0.018134123 -0.31597736 -0.25862104 -0.08074067 -0.25548 -0.017288325 -0.06148957 0.04693597
0.56817394 -0.15591812 -0.40335774 0.2991739 0.021658037 -0.083930194 -0.063823484 -0.02033529
0.39201114 -0.0036728606 0.19134277 0.10350608 -0.0022758897 0.0121124955 -0.2394196 -0.004596021
0.43779236 -0.33192694 0.0074462327 0.007984984 -0.028527234 -0.19488786 0.12714611 0.10981893
0.3996476 0.033682708 0.026316104 0.008047007 0.23721083 -0.12478272 0.07418405 0.3769442
0.03710773 0.104288064 0.045225203 -0.024772512 0.26600197 0.043959297 0.17587775 -0.00041206134
0.014827813 -0.086558774 -0.12488291 -0.32915208 -0.21226357 -0.09273669 0.03290969 0.03781126
-0.021270646 0.16945064 0.3323204 0.09176022 0.222407 0.026515055 0.060260266 0.084444925
-0.079488754 0.17797515 0.40140107 0.10371469 0.022126283 0.001772248 -0.050761554 0.38655466
-0.1214129 -0.4470047 -0.09892405 -0.020461218 -0.15549076 -0.10269019 0.35901606 -0.32715222
-0.08772707 0.12400369 0.040057555 0.14125219 0.10216142 -0.049608503 0.12861004 -0.44924054
-0.29984382 -0.019873852 -0.057747554 -0.07471207 0.20753868 0.09869227 0.2814463 0.27528003
0.00185317 0.059513558 0.055273104 -0.24642347 -0.1926681 0.057242133 0.0031360048 -0.0092934575
-0.03157879 0.010815353 0.025147919 -0.014787366 -0.28277093 -0.00219115 -0.08419794 0.019420873
-0.032147076 -0.33673894 0.06267998 -0.1439008 0.0215571 0.04328642 -0.024476556 -0.0005621703
0.20207316 -0.0863048 0.32994974 -0.12911221 -0.026159177 0.01563622 0.004742717 0.20432332
0.039049156 0.036789283 0.22214933 -0.017440328 -0.0022915385 -0.07878481 0.24975687 -0.21676436
0.25136524 0.06439855 0.046907753 -0.08241542 -0.027125282 -0.08083327 0.38602167 0.34372914
-0.20031072 -0.061092757 -0.08301162 -0.08439905 -0.007745452 -0.034861766 -0.34524727 -0.14534062
00000000: ea62 f73c 4c4c a73e f391 05bc 4c57 e8bd
00000010: 2663 0a3d 88b3 a6bd a58d 75bd ea92 f3bb
00000020: 6669 bb3d 8572 dd3e e3ba 77bd 5208 2b3c
00000030: f827 2a3d deaa c23d 88fc 77be 2206 27be
00000040: c59a ce3e 92dd dbbd ba77 693d 286b 053e
00000050: 7a0b eb3d aaf9 3d3c 10a4 933e d233 f93d
00000060: 3bf9 a73e 9585 d7bc c925 bbbd 849c 33bd
00000070: 7b49 4fbe 4258 45be d1ca 6bbd 455a 143e
00000080: 1d21 88bc 3538 d63b 9dfa e3bc 3d59 883e
00000090: 57b4 a8be 44a9 55be 15dc 1d3e ea09 bc3d
000000a0: 2cec 973b 437a 1abd 826f 50be 06f7 9e3e
000000b0: e21e 3f3e 9ed2 16be 8edf 40bd f739 21bd
000000c0: 2ebc c33c 8cf6 43be 5279 323e 69b1 5fbe
000000d0: ef9a be3e 7239 773c 6302 af3c ef49 903d
000000e0: 15a4 ba3e b262 59be 9f67 17be e555 c6be
000000f0: 5af7 b73d b10b 8cbd fceb 55bd 8743 583e
00000100: be53 5b3e f5f9 9a3c 72d2 82be 0940 4e3c
00000110: 61eb 903d 3b74 e6bc 6512 32be 9b4e 8dbe
00000120: b405 f73d 6636 083e 8d9b b73c 4591 86be
00000130: 2679 36be 7470 80be 589b 3bbe a146 443e
00000140: 2249 233e 649c bb3d 3a27 893e 3f33 c8bc
00000150: 0719 55be 8acb 9c3e c819 8fba 8a6f 51be
00000160: 9cc5 32bd 75da 433e df8f a3bd 94c3 1dbe
00000170: 3245 61be 13e9 8abe f092 953e bcf4 8a3d
00000180: c835 693d 9b40 afbb 5988 f53d ab1e c63e
00000190: 0b96 3abe ad01 59be d4a1 33bd f8bd 6f3d
000001a0: 038e 94bc c9c7 a1be fa69 84be 5d5b a5bd
000001b0: 46ce 82be 3fa0 8dbc 7ddc 7bbd ef3f 403d
000001c0: d973 113f 00a9 1fbe e884 cebe 522d 993e
000001d0: 326c b13c 98e3 abbd e3b5 82bd 3296 a6bc
000001e0: afb5 c83e 60b4 70bb 5cef 433e fffa d33d
000001f0: 1827 15bb 7d73 463c 692a 75be 389a 96bb
00000200: 5226 e03e 54f2 a9be 87ff f33b 73d3 023c
00000210: f2b1 e9bc af90 47be 9732 023e bfe8 e03d
00000220: 9c9e cc3e e1f6 093d df94 d73c 98d7 033c
00000230: 65e7 723e 158e ffbd cfed 973d d5fe c03e
00000240: 46fe 173d fb94 d53d 103e 393d b9ef cabc
00000250: 6931 883e aa0e 343d 4c19 343e f009 d8b9
00000260: 5bf0 723c ba45 b1bd 9cc2 ffbd 9f86 a8be
00000270: 9f5b 59be bcec bdbd 50cc 063d fbdf 1a3d
00000280: c73f aebc 7884 2d3e e625 aa3e c8ec bb3d
00000290: a9be 633e 1a36 d93c 78d3 763d 76f1 ac3d
000002a0: 00cb a2bd 1e3f 363e 7184 cd3e 5e68 d43d
000002b0: 2e42 b53c c64a e83a 59eb 4fbd 7eea c53e
000002c0: 54a7 f8bd cddd e4be b198 cabd 499e a7bc
000002d0: f838 1fbe 3c4f d2bd f4d0 b73e 7f80 a7be
000002e0: 40aa b3bd a6f5 fd3d 6413 243d 6aa4 103e
000002f0: 023a d13d 4932 4bbd 5ab2 033e db02 e6be
00000300: 2185 99be 7dce a2bc b388 6cbd a402 99bd
00000310: 0585 543e 2c1f ca3d bb19 903e 81f1 8c3e
00000320: 11e6 f23a 7dc4 733d 0d66 623d 6f56 7cbe
00000330: c94a 45be ba76 6a3d 6e85 4d3b 9643 18bc
00000340: c358 01bd e132 313c 0203 ce3c b546 72bc
00000350: 5ac7 90be 6699 0fbb f86f acbd 8618 9f3c
00000360: a7ac 03bd 0c69 acbe 5d5e 803d bb5a 13be
00000370: 8498 b03c 1a4d 313d 0f83 c8bc 9c5e 13ba
00000380: 44ec 4e3e 92c0 b0bd 2cef a83e fe35 04be
00000390: c54b d6bc 8817 803c cb68 9b3b 223a 513e
000003a0: 02f2 1f3d 5cb0 163d 1d7b 633e 05df 8ebc
000003b0: a32d 16bb ee59 a1bd 44c0 7f3e 7af7 5dbe
000003c0: f2b2 803e 63e3 833d 5822 403d 6ac9 a8bd
000003d0: d735 debc ea8b a5bd a2a4 c53e 44fd af3e
000003e0: 411e 4dbe 663c 7abd ff01 aabd 69d9 acbd
000003f0: 90cd fdbb 36cb 0ebd 40c4 b0be 2cd4 14be

encoder.0.bias f4 [64]
-0.09817285 -0.1717912 -0.099963166 -0.027651515 -0.049718004 -0.16269197 0.034966424 -0.06098241
-0.31156802 0.08674842 -0.13703948 -0.19247954 -0.42222473 -0.21932696 -0.16445667 -0.2010697
-0.1205275 -0.27729353 -0.33598018 -0.10201027 -0.1315612 -0.088988714 0.041200705 0.018064603
0.085262515 -0.29483205 -0.38681856 -0.34509826 -0.044661388 0.11775253 0.14377202 -0.09174554
-0.02589991 -0.063527495 -0.07409598 0.03294132 -0.05326019 -0.16677956 -0.17393446 -0.21924253
0.1426205 -0.23169152 -0.23823033 0.0021043327 -0.15433814 -0.18941408 -0.13785625 0.08002021
-0.31368288 0.16141437 -0.2806505 0.017761065 -0.016026048 0.020521134 -0.14183843 -0.26028582
-0.09137859 -0.2695873 -0.26700476 -0.29165104 -0.29919997 -0.4020772 -0.1236635 -0.25702843
00000000: d90e c9bd 08ea 2fbe 7db9 ccbd 6e85 e2bc
00000010: 1ba5 4bbd b998 26be f438 0f3d b1c8 79bd
00000020: d885 9fbe 28a9 b13d 1454 0cbe 5b19 45be
00000030: d72d d8be 3f97 60be 5467 28be 37e5 4dbe
00000040: 1fd7 f6bd 6bf9 8dbe 9805 acbe c3ea d0bd
00000050: fbb7 06be b73f b6bd 12c2 283d 38fc 933c
00000060: 1d9e ae3d 3af4 96be 150d c6be b8b0 b0be
00000070: dcee 36bd 3d28 f13d f938 133e 16e5 bbbd
00000080: 0c2c d4bc b41a 82bd a2bf 97bd 7aed 063d
00000090: 5b27 5abd 43c8 2abe e01b 32be 1d81 60be
000000a0: 1c0b 123e 8b40 6dbe a7f2 73be d8e8 093b
000000b0: d10a 1ebe c4f5 41be 302a 0dbe a3e1 a33d
000000c0: 0b9b a0be cf49 253e 6cb1 8fbe a77f 913c
000000d0: 0f49 83bc f01b a83c 183e 11be 2f44 85be
000000e0: b324 bbbd 5907 8abe d9b4 88be 4953 95be
000000f0: bd30 99be 10dd cdbe 4a43 fdbd 3b99 83be

encoder.3.weight f4 [64, 64]
-0.01724037 0.06397675 -0.14631179 -0.30757818 -0.15572615 -0.020366339 -0.030663967 -0.2764895
0.071094275 0.078530625 -0.04398633 -0.38971105 -0.06313629 -0.034479886 0.0028187362 -0.012213501
-0.040618267 -0.05444058 -0.7922321 -0.53790206 0.12004735 -0.062161326 -0.004966287 -0.09946296
-0.26967227 0.009763972 0.07761153 0.0055024577 0.037119992 0.032675076 -0.03523732 -0.03615015
0.16059731 0.022962015 0.17397249 -0.12546857 -0.023953442 0.029363869 0.06120498 -0.117607
0.011664318 0.09119645 0.04537039 0.020995349 -0.019780487 -0.09555065 -0.38089976 -0.036654055
0.011012409 -0.008050548 0.054703612 0.016051343 -0.006334247 0.06321631 0.012336061 0.24781625
-0.5487514 0.0072977245 0.14634761 -0.41532823 -0.2887326 -0.22971947 0.10032109 -0.24632834
0.1017339 -0.15349832 -0.16143887 0.025163608 -0.12539537 -0.09514257 -0.07453149 0.09743359
0.14708163 -0.037799895 -0.08844841 -0.2684842 0.052021172 -0.07105238 0.08568275 -0.24885699
0.07043944 0.053435113 -0.075504564 0.044742424 -0.06931848 0.0142920455 -0.0859597 -0.002699965
-0.03134975 0.010209705 -0.05375567 -0.011534447 0.055745315 -0.20029327 -0.025787864 0.24906205
-0.2166 -0.03640414 -0.16694704 0.08856605 -0.087055154 0.20807545 0.050104264 -0.1291209
0.06639632 -0.06204608 0.12917168 -0.019394768 -0.09412535 0.2898027 -0.11022213 -0.061484434
-0.04854757 -0.04249316 -0.038541306 -0.06731568 0.07130781 -0.17574431 0.045105956 -0.00032349394
-0.09444422 0.08336584 -0.16798814 -0.030040627 -0.06238605 -0.16157164 -0.07025581 0.11383214
0.021028604 -0.18540272 -0.08402411 0.06624954 -0.30091605 0.0356179 0.01834965 0.069469966
0.09067958 0.094735056 -0.085705906 -0.5930027 -0.010789146 -0.13989516 0.04275946 0.0018806641
-0.025320891 0.12974747 -0.25275326 -0.15737422 -0.052657127 -0.105080955 -0.009436347 -0.05192082
-0.12262541 0.05544851 0.015011569 0.031951003 -0.028980082 -0.26294994 0.089190096 0.06388286
-0.054563474 0.08999232 -0.044913247 -0.038860593 0.1130477 0.044067472 -0.0016613969 -0.2316385
-0.029420758 -0.0663067 0.033220932 0.0992258 -0.018962272 0.09985931 -0.1424457 0.03831142
0.028939549 -0.2195742 -0.22639321 0.13801768 0.02450525 0.107601024 -0.0042102877 -0.056227174
-0.2302101 0.18433593 -0.08002096 -0.15379158 -0.14965084 -0.23891643 0.03585356 0.014595639
0.06526625 0.0040134704 -0.23335372 0.053333346 -0.18373162 -0.039660223 -0.13089769 0.10317766
0.10615874 -0.013743552 -0.04161769 -0.19271804 0.042649914 -0.06237541 0.019369382 -0.17766784
0.1950798 0.08220465 -0.61143875 -0.10726736 0.0022770027 0.045229856 0.105288945 -0.003501361
-0.10229888 0.031859417 0.12789075 -0.020479303 -0.032568667 -0.21942307 -0.03348893 -0.09526153
0.21648319 -0.0085559925 0.05935822 -0.26507825 0.07051533 0.110282965 -0.067584924 -0.010863969
0.02944803 -0.014203799 -0.031975582 -0.019802528 0.11514735 -0.12892939 -0.4525764 0.16117546
0.13212924 -0.054279324 0.05178627 0.030964727 -0.06162677 0.17993844 -0.015811311 -0.020066552
-0.60033184 0.049614325 0.20170553 -0.4118064 -0.20023961 -0.022014424 0.047269143 -0.1102474
00000000: ad3b 8dbc 3e06 833d c2d2 15be e37a 9dbe
00000010: ad76 1fbe 4fd7 a6bc 0033 fbbc 0890 8dbe
00000020: e099 913d aad4 a03d 032b 34bd 3588 c7be
00000030: 994d 81bd c83a 0dbd 8cba 383b 231b 48bc
00000040: 575f 26bd 16fd 5ebd b9cf 4abf f3b3 09bf
00000050: 63db f53d e09c 7ebd 3cbc a2bb 3db3 cbbd
00000060: 7c12 8abe 11f9 1f3c cbf2 9e3d f64d b43b
00000070: 220b 183d 4dd6 053d 0255 10bd 2e12 14bd
00000080: 9f73 243e d61a bc3c d825 323e d57a 00be
00000090: 023a c4bc 7f8c f03c 13b2 7a3d f0db f0bd
000000a0: b21b 3f3c 34c5 ba3d 4dd6 393d 70fe ab3c
000000b0: b00a a2bc 0fb0 c3bd 4b05 c3be 9022 16bd
000000c0: 646d 343c 72e6 03bc e510 603d 1b7e 833c
000000d0: 848f cfbb 8e77 813d 311d 4a3c 8bc3 7d3e
000000e0: f97a 0cbf c021 ef3b 26dc 153e e7a5 d4be
000000f0: c2d4 93be 953b 6bbe 2575 cd3d 7f3d 7cbe
00000100: dd59 d03d aa2e 1dbe 3b50 25be e923 ce3c
00000110: a567 00be 1cda c2bd f7a3 98bd 438b c73d
00000120: 919c 163e 10d4 1abd 7124 b5bd c376 89be
00000130: 2714 553d e983 91bd 707a af3d 5ed4 7ebe
00000140: 8e42 903d c7de 5a3d 23a2 9abd d543 373d
00000150: d9f6 8dbd 2f29 6a3c a40b b0bd e5f1 30bb
00000160: 9868 00bd 9b46 273c e82e 5cbd fafa 3cbc
00000170: 3355 643d ae19 4dbe 1241 d3bc 1f0a 7f3e
00000180: 64cc 5dbe 821c 15bd 2af4 2abe 1e62 b53d
00000190: f949 b2bd bb11 553e 213a 4d3d 4538 04be
000001a0: cbfa 873d 0824 7ebd 9545 043e c7e1 9ebc
000001b0: cbc4 c0bd 0561 943e 24bc e1bd 1ad7 7bbd
000001c0: d1d9 46bd 4f0d 2ebd 7ddd 1dbd cedc 89bd
000001d0: d409 923d 51f6 33be 06c1 383d 9f9a a9b9
000001e0: f96b c1bd b6bb aa3d 1505 2cbe c317 f6bc
000001f0: 8488 7fbd 0973 25be 47e2 8fbd d320 e93d
00000200: 2e44 ac3c 36da 3dbe d514 acbd d7ad 873d
00000210: ab11 9abe 13e4 113d 0152 963c 4546 8e3d
00000220: 37b6 b93d 7404 c23d 9486 afbd 06cf 17bf
00000230: f5c4 30bc ad40 0fbe 8b24 2f3d 9e80 f63a
00000240: c26d cfbc 85dc 043e e068 81be b526 21be
00000250: 00af 57bd af34 d7bd e89a 1abc edaa 54bd
00000260: 0823 fbbd fa1d 633d 15f3 753c 0edf 023d
00000270: a367 edbc 60a1 86be 4ca9 b63d 04d5 823d
00000280: f37d 5fbd e54d b83d f4f6 37bd 492c 1fbd
00000290: 8d85 e73d 1880 343d 3bc3 d9ba a532 6dbe
000002a0: cd03 f1bc cfcb 87bd ac12 083d e536 cb3d
000002b0: c456 9bbc 0a83 cc3d 49dd 11be 6fec 1c3d
000002c0: a212 ed3c 0fd8 60be 9fd3 67be 8254 0d3e
000002d0: 3cbf c83c ed5d dc3d 74f6 89bb 774e 66bd
000002e0: 32bc 6bbe 8fc2 3c3e 07e2 a3bd 8a7b 1dbe
000002f0: 123e 19be 82a6 74be 2fdb 123d 8c22 6f3c
00000300: 50aa 853d 6e83 833b 47f4 6ebe 1174 5a3d
00000310: 2424 3cbe c272 22bd 0b0a 06be cf4e d33d
00000320: c169 d93d a32c 61bc 5077 2abd e157 45be
00000330: adb1 2e3d 5c7d 7fbd 8aac 9e3c 8fee 35be
00000340: 00c3 473e e95a a83d 4087 1cbf fdae dbbd
00000350: c439 153b f142 393d bba1 d73d 1777 65bb
00000360: 1382 d1bd 057f 023d cbf5 023e 36c4 a7bc
00000370: b966 05bd 71b0 60be b02b 09bd 7a18 c3bd
00000380: c5ad 5d3e 6f2e 0cbc 9b21 733d 56b8 87be
00000390: 576a 903d 09dc e13d f769 8abd cafe 31bc
000003a0: ff3c f13c 0db7 68bc d4f8 02bd e938 a2bc
000003b0: 60d2 eb3d 1106 04be 18b8 e7be 2e0b 253e
000003c0: e34c 073e ff53 5ebd d71d 543d bda9 fd3c
000003d0: 5a6c 7cbd c841 383e b986 81bc 9c62 a4bc
000003e0: 59af 19bf 6438 4b3d e58b 4e3e 4ad8 d2be
000003f0: 9d0b 4dbe 9857 b4bc 4a9d 413d 64c9 e1bd

encoder.3.bias f4 [64]
0.1675206 0.23866294 0.25858128 0.036053356 0.05763087 0.26964483 0.35444212 0.17698133
0.16837466 -0.030260166 0.18501438 0.28226843 0.32704556 0.32436717 0.09866056 0.0580414
0.17607565 0.23593466 0.12580618 0.3530667 0.21920007 0.2188833 0.06662567 0.20417005
0.23590003 0.23583256 0.26123926 0.22488649 0.3444828 0.21756878 0.1497748 0.16282903
-0.061274372 -0.025291134 0.19894393 0.20612374 -0.05619063 0.27643675 0.08870375 0.09539358
0.07277013 0.31341732 0.14167026 0.23534682 0.23072699 0.13486695 0.16387786 0.037926685
0.006383608 0.14249353 0.18759017 0.35517174 0.14640692 0.022154653 0.27189648 0.3140222
0.2556129 0.30357942 0.051517427 0.2840026 0.16557686 0.25716716 0.2144331 0.13844734
00000000: 858a 2b3e 0f64 743e c464 843e afac 133d
00000010: 590e 6c3d e30e 8a3e 7079 b53e 983a 353e
00000020: 686a 2c3e 2be4 f7bc 6974 3d3e 7d85 903e
00000030: 8472 a73e 7413 a63e 8c0e ca3d d2bc 6d3d
00000040: 2d4d 343e db98 713e 56d3 003e 29c5 b43e
00000050: fc75 603e f222 603e 0a73 883d f411 513e
00000060: c78f 713e 177e 713e 27c1 853e a548 663e
00000070: 0d60 b03e 5aca 5e3e 915e 193e a7bc 263e
00000080: d6fa 7abd 5a2f cfbc f5b7 4b3e 1a12 533e
00000090: 2528 66bd 1e89 8d3e 50aa b53d b65d c33d
000000a0: 8208 953d 3c78 a03e 0212 113e c2fe 703e
000000b0: b243 6c3e 901a 0a3e 99cf 273e 0359 1b3d
000000c0: 962d d13b d3e9 113e a317 403e 12d9 b53e
000000d0: b2eb 153e ad7d b53c 0436 8b3e 85c7 a03e
000000e0: b2df 823e c36e 9b3e f003 533d ca68 913e
000000f0: fb8c 293e 6aab 833e 5a94 5b3e 24c5 0d3e

fc_mu.weight f4 [4, 64]
0.029468175 -0.15670504 -0.08786635 -0.0065156347 -0.09651367 0.07318537 0.10584557 -0.03519666
0.1498839 0.18855591 0.11143026 -0.054003336 -0.021171441 0.036961906 0.17333059 -0.022124216
0.03666418 0.06647951 -0.14443916 0.0644705 -0.14505129 -0.012704374 0.1286739 -0.13764326
0.035858776 -0.111650735 -0.08990835 0.16234481 0.09522467 -0.0460067 0.026440132 0.012765302
0.09273761 -0.20601335 0.01609112 -0.07145343 -0.06830872 0.07152049 0.16234319 -0.03948082
-0.13867363 -0.12668179 -0.13952854 -0.03892158 0.1327839 0.048241194 -0.08272087 -0.043633193
-0.13449591 -0.051192906 0.19887803 0.011769959 0.030925553 -0.16158111 0.032560267 0.035192996
0.15413254 -0.08290881 0.11247883 0.12470987 0.060591914 -0.013844543 -0.011327972 -0.09548574
-0.25637048 -0.01929494 -0.08793389 -0.13608953 0.00996141 0.1727082 -0.15597145 -0.17391692
0.025405692 0.037427723 0.05188392 0.061324656 -0.109520905 0.019528678 0.01656812 0.16040544
0.04795203 -0.1725127 0.01944953 -0.122642435 -0.010860166 -0.13063379 -0.0069978274 0.004833767
0.17326233 0.018973507 -0.055354286 0.0034701729 -0.09649879 0.18265657 -0.14302452 0.20454484
0.023744904 0.009297011 0.1475685 -0.09981574 -0.10237815 0.01085234 0.055290356 0.025199352
-0.009663366 0.0093818875 0.04725589 0.23566215 -0.05813742 -0.068165354 -0.10519264 -0.06357127
0.069604106 -0.11897363 0.015829144 0.21159668 0.120950356 -0.005205875 -0.19843067 0.123514324
0.06519915 0.108194806 -0.035462942 0.11189016 -0.0573578 -0.22467901 -0.028472869 0.11490582
0.006267305 0.0072339145 0.0056820754 -0.003438608 0.0044747554 0.00880553 -0.00412681 0.0023981947
-0.00029765815 0.0059518637 0.004996417 0.0067526954 -0.007212653 0.014515064 0.0080010155 6.9828e-05
0.008323172 0.0091134375 -0.0016745994 -0.0019408299 0.004145835 0.003952678 -0.0044435263 0.0023540035
0.009804965 -0.0012189707 0.001423324 -0.0011027487 0.010572003 0.003019723 -0.003328462 -0.0019675882
-0.06896755 0.0025550718 -0.0037043367 0.0026062215 -0.06465522 0.00885844 0.009485652 0.0021968605
-0.0051379194 0.003120968 0.00445719 0.00022474324 0.0046366844 0.009867708 -0.0021038891 -0.0076777395
-0.0029826176 0.00088913605 0.0076780883 0.0019636536 0.0028498033 -0.00020580147 -0.012364979 -0.00079291285
-0.008150483 0.0067287246 0.00914412 -0.0004640451 -0.006576862 0.0029661397 -0.006817254 -0.008566588
-0.048684217 -0.07350026 -0.11623428 0.020366056 0.19691116 -0.0071984213 0.026734363 0.10172759
0.090478875 -0.02181217 -0.10877382 0.18503152 0.10383963 -0.16827856 0.045358095 0.0048488625
-0.16249757 -0.12398364 0.05182042 0.12944664 0.11126279 0.13758169 0.11622196 -0.084332
-0.051558528 0.07095277 -0.13577421 -0.012065462 -0.12530173 0.032242544 0.08980317 0.040402897
-0.04635388 0.016754609 0.04808847 -0.14940459 0.06090197 -0.17174268 -0.100210994 -0.19262926
0.078056134 -0.13046485 -0.028352125 0.027603025 0.09785737 -0.1324948 0.07927463 -0.14696905
-0.01461548 -0.093887515 -0.10625364 0.015998347 -0.046530183 -0.115731426 -0.087110795 0.14306083
0.06250376 -0.09878161 -0.13078621 -0.008160473 0.09944654 0.0032943035 0.21021397 -0.04148709
00000000: 3e67 f13c 4977 20be 46f3 b3bd 1b81 d5bb
00000010: f6a8 c5bd 36e2 953d 90c5 d83d 5f2a 10bd
00000020: 2a7b 193e cd14 413e 8c35 e43d 9a32 5dbd
00000030: bb6f adbc 5e65 173d 937d 313e d83d b5bc
00000040: 2e2d 163d 6926 883d dce7 13be 1c09 843d
00000050: 5388 14be 0226 50bc 17c3 033e 5bf2 0cbe
00000060: a7e0 123d 24a9 e4bd de21 b8bd b83d 263e
00000070: 2705 c33d 8571 3cbd fa98 d83c 8f25 513c
00000080: 37ed bd3d 2af5 52be 86d1 833c 2d56 92bd
00000090: 71e5 8bbd 5679 923d 4b3d 263e a4b6 21bd
000000a0: 7600 0ebe dfb8 01be 92e0 0ebe 3c6c 1fbd
000000b0: 81f8 073e 8f98 453d 8f69 a9bd b8b8 32bd
000000c0: 4cb9 09be a7af 51bd afa6 4b3e c9d6 403c
000000d0: 9657 fd3c 8575 25be ea5d 053d 8826 103d
000000e0: ecd4 1d3e 18cc a9bd 4d5b e63d e367 ff3d
000000f0: 3a2f 783d 39d4 62bc f598 39bc 078e c3bd
00000100: fe42 83be 6c10 9ebc af16 b4bd 0e5b 0bbe
00000110: 2f35 233c 6bda 303e fbb6 1fbe 4717 32be
00000120: 991f d03c d04d 193d 3c84 543d 902f 7b3d
00000130: 7f4c e0bd 9bfa 9f3c deb9 873c 5341 243e
00000140: 5969 443d 2ba7 30be 9f54 9f3c f52b fbbd
00000150: d6ee 31bc ddc4 05be 084e e5bb 9464 9e3b
00000160: ae6b 313e 546e 9b3c 2dbb 62bd d76b 633b
00000170: 28a1 c5bd 530a 3b3e 0575 12be 3474 513e
00000180: ac84 c23c 7e52 183c 321c 173e 326c ccbd
00000190: a3ab d1bd 03ce 313c 2478 623d df6e ce3c
000001a0: 1853 1ebc 7db6 193c 648f 413d 6b51 713e
000001b0: 8121 6ebd 479a 8bbd 3d6f d7bd a731 82bd
000001c0: 998c 8e3d 72a8 f3bd 1fac 813c cdac 583e
000001d0: d2b4 f73d 0b96 aabb 6931 4bbe 14f5 fc3d
000001e0: 2287 853d 3d95 dd3d 9741 11bd ab26 e53d
000001f0: 03f0 6abd 4112 66be ef3f e9bc be53 eb3d
00000200: f75d cd3b 790a ed3b b430 ba3b 455a 61bb
00000210: f8a0 923b 1245 103c 313a 87bb 082b 1d3b
00000220: 000f 9cb9 da07 c33b fcb8 a33b b745 dd3b
00000230: 1e58 ecbb 97d0 6d3c b116 033c 9f70 9238
00000240: ea5d 083c 8750 153c 3b7e dbba 7263 feba
00000250: c9d9 873b 7785 813b 009b 91bb a045 1a3b
00000260: 01a5 203c dfc5 9fba d48e ba3a 1b8a 90ba
00000270: 3236 2d3c 8ce6 453b 5322 5abb a7f2 00bb
00000280: dc3e 8dbd fe72 273b 75c4 72bb 24cd 2a3b
00000290: f569 84bd fe22 113c b569 1b3c 34f9 0f3b
000002a0: fe5b a8bb 2789 4c3b 9f0d 923b 0ea9 6b39
000002b0: 54ef 973b 2bac 213c 67e1 09bb 8c95 fbbb
000002c0: 0578 43bb e914 693a 7998 fb3b a4b0 003b
000002d0: c4c3 3a3b 69cc 57b9 7b96 4abc 7bdb 4fba
000002e0: 9a89 05bc a27c dc3b 38d1 153c 144b f3b9
000002f0: b882 d7bb 9163 423b 4563 dfbb e05a 0cbc
00000300: 1a69 47bd 4e87 96bd 3d0c eebd b7d6 a63c
00000310: 14a3 493e bce0 ebbb 0602 db3c 8e56 d03d
00000320: fd4c b93d 70af b2bc cfc4 debd e778 3d3e
00000330: dfa9 d43d 3751 2cbe 69c9 393d 35e3 9e3b
00000340: c365 26be 22eb fdbd a641 543d a98d 043e
00000350: bfdd e33d 37e2 0c3e c705 ee3d 41b6 acbd
00000360: 092f 53bd b04f 913d 6508 0bbe 37ae 45bc
00000370: 194f 00be c210 043d b9ea b73d 827d 253d
00000380: 91dd 3dbd f640 893c 6af8 443d 84fd 18be
00000390: 5874 793d 50dd 2fbe 6c3b cdbd 9b40 45be
000003a0: e5db 9f3d 9498 05be b742 e8bc bd1f e23c
000003b0: 7269 c83d b8ac 07be bd5a a23d 0e7f 16be
000003c0: c475 6fbc 1948 c0bd 829b d9bd f70e 833c
000003d0: 6f96 3ebd 9904 edbd 2567 b2bd 8a7e 123e
000003e0: f901 803d 034e cabd d2ec 05be 81b3 05bc
000003f0: a1aa cb3d 3ee5 573b 5542 573e 5eee 29bd

fc_mu.bias f4 [4]
-0.023004245 0.0048828493 -0.016246019 0.075264305
00000000: 6673 bcbc 4f00 a03b 5f16 85bc 2c24 9a3d

fc_logvar.weight f4 [4, 64]
0.024346322 0.010062521 -0.041993916 0.01345263 0.06448181 -0.120819755 -0.017543947 0.065951854
0.055539172 -0.071172304 -0.09472978 -0.18309447 0.07184802 -0.05173462 -0.09251952 0.035172246
0.037813522 0.03573273 -0.10218121 -0.060101334 -0.13078253 -0.06234131 0.0035622297 0.111753985
-0.04432677 0.09197022 -0.033820525 -0.021457981 -0.062205505 -0.055470876 0.08187634 -0.07230827
0.016327636 -0.091706626 -0.003292509 -0.0010922643 0.08862327 -0.10423682 -0.053804412 -0.025709657
-0.011808869 -0.104025126 -0.033467118 -0.10027668 0.012293379 0.0020033931 0.020044288 0.009227478
0.009488374 0.028830575 0.0019480537 -0.12687156 0.0005061225 -0.06549427 -0.07888752 -0.11967979
-0.054623846 -0.07318531 0.022066008 -0.11687245 0.054633617 0.043426175 0.0503425 0.080317564
0.10828149 -0.18483329 -0.032168142 -0.05626528 -0.1516103 0.16213067 -0.19539978 -0.013497921
-0.18948926 0.018938787 -0.017720023 0.04026506 -0.14891896 -0.15651432 0.13422185 -0.046499252
-0.15114158 -0.092015065 -0.0044858297 0.083234586 0.081133455 0.30634657 -0.06448044 -0.17683119
-0.035174806 -0.2445627 -0.07877597 -0.09506273 -0.06974608 -0.043708466 -0.1017405 0.058780536
0.030316997 -0.02636115 0.005722325 -0.06669864 -0.016903387 0.102256365 0.024732215 0.07242319
-0.10691587 -0.029220724 -0.02771593 0.15903875 -0.063195504 -0.04807351 0.033362493 0.12126208
-0.09448716 -0.2073961 -0.076879434 0.027572032 -0.07984459 -0.03636918 0.25902426 -0.08360111
-0.17580268 -0.058688574 0.01276031 -0.119025975 -0.19029793 0.10918728 -0.15549578 -0.03615241
-0.0055896672 0.002904502 -0.002428439 -0.0017159435 -0.0048869136 0.0056782793 -0.0019509952 -0.007850908
0.0032824061 0.0022024382 -0.0026961104 -0.0024384188 0.002741647 0.0038104083 -0.008449474 -0.006155223
0.00019782226 0.0025019771 0.003293615 0.0021601885 -0.000920841 -0.00015448987 -0.0028861132 -0.0044134324
-0.0019265221 -0.00454062 -0.0015129332 0.0005031024 0.008821668 -0.0005646918 -0.004077702 -0.0039784014
-0.009564941 -0.0037563823 -0.0015819833 0.00094792305 0.03094266 -0.0022571988 0.003259938 0.0064986814
-0.0028013177 0.0024856778 0.001783024 -0.005091525 -0.0030174523 0.0019742392 -0.0006140641 0.0007592138
-0.002122009 -0.0058183237 0.00198519 0.0016851107 -0.002237255 -0.00629016 0.003117483 -0.0037534179
0.007582992 -0.0020739706 -0.000317913 -0.000822866 -0.0022903397 0.0019254487 7.723956e-05 -0.004719705
-0.0035408444 -0.020458527 -0.07857283 0.011769957 -0.034298062 0.011212847 -0.051201437 -0.018920112
-0.019112522 0.066732794 0.016935239 -0.026546868 -0.08581466 -0.06305737 -0.0059334226 0.01654758
0.00441679 -0.048100565 -0.026333485 -0.067739874 -0.06388847 0.029172193 -0.036572415 -0.009644573
0.058471166 0.0047762077 -0.06943344 -0.019835485 -0.10583795 0.032119874 0.04490914 0.022939969
0.057579633 0.00083187077 0.027021287 -0.10721993 -0.14313841 -0.03160359 -0.0044001234 0.008726571
-0.05311414 -0.053666882 0.04275782 -0.00029957452 -0.00047536768 -0.08012742 -0.06048767 -0.022078786
0.02316209 -0.02238874 0.018098572 0.05512741 0.039617192 -0.042841416 -0.047094267 0.0005394908
0.03621429 0.05085878 0.007957036 0.09309855 -0.010278933 -0.011033371 -0.030510567 0.05540358
00000000: f071 c73c 46dd 243c d001 2cbd 6b68 5c3c
00000010: 0a0f 843d 5970 f7bd 53b8 8fbc c411 873d
00000020: 0b7d 633d c9c2 91bd b001 c2bd 1e7d 3bbe
00000030: 0e25 933d aee7 53bd e07a bdbd c610 103d
00000040: 5ae2 1a3d 7c5c 123d 6244 d1bd d12c 76bd
00000050: dbeb 05be 9a59 7fbd 4c74 693b 46df e43d
00000060: fd8f 35bd e25a bc3d 6487 0abd a6c8 afbc
00000070: 33cb 7ebd 6e35 63bd c8ae a73d 5c16 94bd
00000080: 89c1 853c afd0 bbbd 22c7 57bb 4f2a 8fba
00000090: 1e80 b53d 1d7a d5bd 0462 5cbd 0f9d d2bc
000000a0: fd79 41bc 200b d5bd d114 09bd dc5d cdbd
000000b0: 2b6a 493c 5c4b 033b eb33 a43c d92e 173c
000000c0: 2075 1b3c 192e ec3c d655 ff3a 9eea 01be
000000d0: 4ead 043a dc21 86bd c88f a1bd ae1a f5bd
000000e0: 41bd 5fbd 2ee2 95bd c6c3 b43c d35a efbd
000000f0: 80c7 5f3d a5df 313d f033 4e3d 897d a43d
00000100: b0c2 dd3d f044 3dbe bec2 03bd 6c76 66bd
00000110: bb3f 1bbe 9505 263e e116 48be 6226 5dbc
00000120: 7909 42be 8425 9b3c 9529 91bc faec 243d
00000130: 367e 18be 4a45 20be 7471 093e 0076 3ebd
00000140: dcc4 1abe 6572 bcbd defd 92bb e576 aa3d
00000150: 4c29 a63d 75d9 9c3e 520e 84bd 3c13 35be
00000160: 7513 10bd a56e 7abe 4c55 a1bd 40b0 c2bd
00000170: 08d7 8ebd a607 33bd 535d d0bd dcc3 703d
00000180: 5a5b f83c 57f3 d7bc 5782 bb3b 4c99 88bd
00000190: f978 8abc c96b d13d 379b ca3c 9c52 943d
000001a0: b5f6 dabd 4d60 efbc 850c e3bc 0edb 223e
000001b0: a56c 81bd bbe8 44bd 1ca7 083d 4158 f83d
000001c0: 7c82 c1bd a55f 54be f772 9dbd bede e13c
000001d0: 8f85 a3bd d9f7 14bd d49e 843e 0f37 abbd
000001e0: 9e05 34be 6e63 70bd 9f10 513c e4c3 f3bd
000001f0: 76dd 42be 959d df3d 493a 1fbe 8d14 14bd
00000200: 8729 b7bb 7559 3e3b 7226 1fbb 82e9 e0ba
00000210: 6722 a0bb dc10 ba3b 89b8 ffba 18a1 00bc
00000220: a31d 573b c856 103b 3ab1 30bb e1cd 1fbb
00000230: 34ad 333b 0bb8 793b aa6f 0abc c1b1 c9bb
00000240: 826e 4f39 36f8 233b b1d9 573b f391 0d3b
00000250: 9864 71ba 8ffe 21b9 f224 3dbb 8e9e 90bb
00000260: 5b83 fcba 7bc9 94bb 9d4d c6ba a1e2 033a
00000270: c288 103c d307 14ba 3e9e 85bb 405d 82bb
00000280: 45b6 1cbc a32d 76bb 8d5a cfba 0a7e 783a
00000290: 767b fd3c 83ed 13bb afa4 553b e4f2 d43b
000002a0: 5096 37bb c1e6 223b 5cb4 e93a cfd6 a6bb
000002b0: 73c0 45bb 3d62 013b 25f9 20ba fa05 473a
000002c0: 6711 0bbb a3a7 bebb f619 023b efde dc3a
000002d0: e99e 12bb b01d cebb b04e 4c3b e7fb 75bb
000002e0: bf7a f83b 74eb 07bb 90ad a6b9 9ab5 57ba
000002f0: 8619 16bb 565f fc3a acfb a138 c1a7 9abb
00000300: 830d 68bb a498 a7bc cbea a0bd c7d6 403c
00000310: 207c 0cbd 17b6 373c 99b8 51bd 5afe 9abc
00000320: dd91 9cbc 34ab 883d c5bb 8a3c d178 d9bc
00000330: 99bf afbd 3924 81bd 286d c2bb ca8e 873c
00000340: b8ba 903b 1905 45bd 52b9 d7bc 34bb 8abd
00000350: f5d7 82bd 86fa ee3c f5cc 15bd 4504 1ebc
00000360: 767f 6f3d bc81 9c3b 1f33 8ebd 077e a2bc
00000370: 91c1 d8bd 2190 033d a5f2 373d 9aec bb3c
00000380: 9fd8 6b3d e711 5a3a bf5b dd3c 1f96 dbbd
00000390: e092 12be c472 01bd e92e 90bb e4f9 0e3c
000003a0: 368e 59bd ced1 5bbd d322 2f3d 3610 9db9
000003b0: c53a f9b9 d819 a4bd ebc1 77bd 92de b4bc
000003c0: 6cbe bd3c 9768 b7bc 7543 943c 47cd 613d
000003d0: a345 223d 7b7a 2fbd ebe5 40bd 9d6c 0d3a
000003e0: 6f55 143d 4c51 503d 3a5e 023c 74aa be3d
000003f0: f868 28bc 50c5 34bc 4cf1 f9bc ddee 623d

fc_logvar.bias f4 [4]
-0.5343827 -0.7808242 0.005073978 -0.46006182
00000000: 4ecd 08bf 18e4 47bf 9d43 a63b 398d ebbe

decoder.0.weight f4 [64, 7]
0.065061904 -0.41305274 -0.021957997 -0.30622023 0.15025207 -0.1576047 -0.016037501 0.25042805
-0.34229663 0.042900436 0.2643281 0.03138826 -0.15282705 -0.07624106 0.26351425 0.15846153
0.006486125 -0.0046994262 -0.17698106 0.19989398 -0.076857254 -0.33681014 0.42051762 0.018785719
-0.031391226 0.03525359 -0.08556631 -0.0015695982 -0.14164317 -0.2966025 -0.005644767 -0.3935108
-0.059453905 -0.05179784 -0.023057936 0.004697655 -0.65156955 -0.031900674 0.2789187 0.057864554
-0.06588387 -0.042347778 0.1586118 -0.4098379 -0.030815637 0.085687935 -0.112409644 0.05656515
0.09953156 0.18829985 -0.48597613 0.03772741 -0.25166836 -0.086785436 -0.12019943 -0.102475815
-0.16299574 -0.6409569 -0.013041487 -0.14417839 0.058142316 -0.028621348 0.07957622 0.026886676
-0.53294605 -0.06493619 0.19033496 -0.077923216 0.18433103 0.2142717 -0.16997391 -0.41868156
0.009271907 0.03880003 0.0029255205 0.06484544 0.016044153 -0.30565444 -0.33859092 -0.023971455
-0.3156065 -0.06600989 0.0042059645 0.021364195 -0.35244003 0.36786577 0.0025709488 0.13882631
-0.16810495 -0.0061062113 -0.059123207 -0.2991791 0.0737305 -0.035062555 -0.348432 -0.0036678938
0.021120688 0.058734644 0.15289383 0.4763569 -0.012267667 0.1376053 0.03805647 0.033316936
0.045335628 0.044992745 -0.4422788 -0.015629306 -0.13201155 -0.14212607 0.12364335 0.10362539
-0.2920373 -0.56612515 -0.025289088 0.012653712 0.013903164 -0.022594294 0.003978006 -0.27908072
-0.3911816 -0.021758337 -0.20093593 -0.15571436 -0.079753526 0.013419315 0.093937114 0.102921695
-0.00417893 -0.103119284 0.35949302 -0.15490033 -0.22662842 -0.08671499 0.7501947 0.012494184
0.03356246 -0.031663675 -0.090051584 -0.05102747 0.09088774 -0.46416268 -0.00010043188 0.45162246
-0.03119613 0.08806496 0.016341887 0.32131943 0.42563322 -0.017351998 -0.0046984507 0.042202223
-0.047436867 0.02947578 -0.26742658 0.30562034 0.028203186 -0.3838685 -0.0040013078 -0.105916075
0.017003106 0.11556188 -0.1166719 -0.026776062 0.51402134 -0.09216099 0.036386643 0.053229682
-0.39771113 -0.30707002 0.048602175 0.44054148 0.02467223 -0.12899323 -0.15044819 0.4527819
0.22817732 0.022518365 -0.069877535 -0.013469982 0.00026182175 0.007954416 0.27005786 0.46973082
-0.00038792545 -0.040255085 0.034882817 0.33548456 -0.14606836 0.2589809 0.23989883 -0.03865034
-0.22356747 -0.022042029 0.09197061 0.06925959 -0.3511649 0.11631807 -0.013369211 -0.06204072
0.072227836 0.08710373 -0.024613695 -0.39289927 0.28143275 -0.024193645 -0.13106273 0.029566146
0.06359397 0.20495635 0.42064527 -0.062322747 0.028209606 0.017201737 -0.028994896 0.011416746
0.03421947 -0.5072781 0.06840347 0.03322635 0.029381989 -0.056683827 0.085216954 0.08569324
0.28347868 -0.32354164 -0.019154621 -0.11106619 -0.1228955 -0.0046333317 0.066272855 0.19080633
-0.4992178 -0.010370512 0.018699545 -0.058013417 -0.03709399 -0.08728594 0.37375593 -0.27798748
-0.013828013 -0.01779124 -0.041116104 -0.028379956 -0.05386723 -0.11699054 -0.55641276 0.045038205
0.13584255 0.036849476 0.027750757 0.14333445 0.2770774 -0.38615963 0.03813374 -0.008535087
00000000: 2d3f 853d a67b d3be 42e1 b3bc e6c8 9cbe
00000010: aedb 193e 2063 21be 1461 83bc 1b38 803e
00000020: 8141 afbe 5eb8 2f3d 0356 873e fa90 003d
00000030: b27e 1cbe 4624 9cbd 57eb 863e bd43 223e
00000040: 8f89 d43b a5fd 99bb 863a 35be 02b1 4c3e
00000050: 5667 9dbd 6172 acbe 164e d73e 82e4 993c
00000060: 1694 00bd 1266 103d 643d afbd faba cdba
00000070: e80a 11be 48dc 97be bdf7 b8bb 3f7a c9be
00000080: f085 73bd f929 54bd ffe3 bcbc c9ee 993b
00000090: 43cd 26bf 48aa 02bd 6fce 8e3e 6203 6d3d
000000a0: 1fee 86bd dd74 2dbd 226b 223e 46d6 d1be
000000b0: 1371 fcbc 287d af3d 0737 e6bd dcb0 673d
000000c0: 34d7 cb3d add1 403e ddd1 f8be 0f88 1a3d
000000d0: adda 80be 90bc b1bd 1e2b f6bd d7de d1bd
000000e0: 5be8 26be c015 24bf f6ab 55bc 80a3 13be
000000f0: a326 6e3d 5177 eabc dbf8 a23d 7241 dc3c
00000100: 276f 08bf 44fd 84bd 2be7 423e 3596 9fbd
00000110: 46c1 3c3e 0a6a 5b3e a40d 2ebe 6e5d d6be
00000120: 32e9 173c c8ec 1e3d 17ba 3f3b b0cd 843d
00000130: 076f 833c bd7e 9cbe ca5b adbe c95f c4bc
00000140: 2d97 a1be 3130 87bd 30d2 893b f703 af3c
00000150: 0573 b4be e758 bc3e 5d7d 283b 7c28 0e3e
00000160: b423 2cbe 9d16 c8bb 2d2b 72bd 012e 99be
00000170: 0400 973d c19d 0fbd ae65 b2be 0c61 70bb
00000180: 4b05 ad3c bd93 703d 3390 1c3e 0de5 f33e
00000190: 53fe 48bc 67e8 0c3e 1ae1 1b3d 5777 083d
000001a0: dab1 393d 504a 383d 5e72 e2be 0809 80bc
000001b0: 092e 07be 7f89 11be ba38 fd3d 8c39 d43d
000001c0: ea85 95be 94ed 10bf 102b cfbc 8451 4f3c
000001d0: 19ca 633c ab17 b9bc ef59 823b abe3 8ebe
000001e0: f448 c8be 8a3e b2bc 26c2 4dbe 9673 1fbe
000001f0: d155 a3bd b0dc 5b3c 1a62 c03d 9cc8 d23d
00000200: 68ef 88bb 3430 d3bd 780f b83e 319e 1ebe
00000210: 4811 68be a197 b1bd c30c 403f 68b4 4c3c
00000220: ca78 093d c5b1 01bd f76c b8bd 2e02 51bd
00000230: 5a23 ba3d bba6 edbe f49e d2b8 0f3b e73e
00000240: 078f ffbc 675b b43d 6cdf 853c fb83 a43e
00000250: 99ec d93e c725 8ebc 76f5 99bb 3ddc 2c3d
00000260: 294d 42bd 3177 f13c 23ec 88be 457a 9c3e
00000270: 5e0a e73c 698a c4be 671d 83bb 87ea d8bd
00000280: 194a 8b3c b5ab ec3d adf1 eebd 7959 dbbc
00000290: e796 033f e7be bcbd 290a 153d 5e07 5a3d
000002a0: cba0 cbbe 4838 9dbe 1313 473d a78e e13e
000002b0: 6b1d ca3c cd16 04be 170f 1abe 07d3 e73e
000002c0: 51a7 693e 6f78 b83c f41b 8fbd 33b1 5cbc
000002d0: 1f45 8939 3d53 023c 0645 8a3e 8f80 f03e
000002e0: 7962 cbb9 84e2 24bd 49e1 0e3d a2c4 ab3e
000002f0: f292 15be 2599 843e 0aa8 753e d24f 1ebd
00000300: dfee 64be 7c91 b4bc 165b bc3d f9d7 8d3d
00000310: e3cb b3be 2b38 ee3d 890a 5bbc 691e 7ebd
00000320: 30ec 933d 7163 b23d a9a2 c9bc 182a c9be
00000330: f417 903e c031 c6bc 4f35 06be b434 f23c
00000340: 8e3d 823d 14e0 513e d15e d73e 2346 7fbd
00000350: d517 e73c a8ea 8c3c b486 edbc 4e0d 3b3c
00000360: b729 0c3d fadc 01bf 1e17 8c3d 5a18 083d
00000370: 7fb2 f03c 4d2d 68bd 3a86 ae3d f07f af3d
00000380: 1e24 913e 40a7 a5be 27ea 9cbc ac76 e3bd
00000390: a3b0 fbbd 34d3 97bb 10ba 873d bc62 433e
000003a0: 7a99 ffbe 14e9 29bc ca2f 993c 7a9f 6dbd
000003b0: deef 17bd f9c2 b2bd f05c bf3e 6054 8ebe
000003c0: e48e 62bc efbe 91bc 5c69 28bd 157d e8bc
000003d0: e2a3 5cbd bc98 efbd 1171 0ebf fb79 383d
000003e0: 4f1a 0b3e 7aef 163d 8e55 e33c 44c6 123e
000003f0: 17dd 8d3e b7b6 c5be 2032 1c3d c0d6 0bbc

decoder.0.bias f4 [64]
-0.28076223 -0.10065764 0.083637424 -0.094461486 -0.40776268 0.017010743 0.23905979 0.10086961
-0.056847386 -0.046822958 0.24624528 -0.15924037 -0.36309892 -0.14672144 0.34548384 0.2713094
-0.038750723 0.14343823 -0.24371219 -0.10482157 -0.181435 -0.17791218 0.02000017 -0.18603112
-0.10799845 -0.35967714 -0.30862126 0.024602393 0.22461347 -0.085003175 -0.060060192 -0.21490362
0.13410786 0.29298946 -0.0992609 -0.18422589 0.18969105 -0.0028509144 -0.43720338 -0.02948853
-0.22315732 -0.054193802 0.18975416 0.28310126 -0.1256405 -0.021357398 0.24974242 0.21154734
-0.31538448 -0.042007264 0.05489948 -0.04574392 0.19760624 0.21941124 0.24611647 0.29546502
-0.48403886 0.12908266 0.32184368 0.28896472 0.034165688 0.081376776 -0.32718778 -0.039353922
00000000: 11c0 8fbe 9825 cebd 194a ab3d 0675 c1bd
00000010: 45c6 d0be 1d5a 8b3c 17cc 743e ba94 ce3d
00000020: ced8 68bd 6ec9 3fbd b927 7c3e e80f 23be
00000030: 1ae8 b9be 253e 16be 42e3 b03e 11e9 8a3e
00000040: 14b9 1ebd 79e1 123e b08f 79be b1ac d6bd
00000050: 19ca 39be 9c2e 36be 66d7 a33c f17e 3ebe
00000060: 4b2e ddbd 9a27 b8be 9b03 9ebe f58a c93c
00000070: 1301 663e 2516 aebd ad01 76bd b20f 5cbe
00000080: 9253 093e b702 963e 4c49 cbbd b6a5 3cbe
00000090: 5f3e 423e 68d6 3abb 1fd9 dfbe ee91 f1bc
000000a0: 5a83 64be 52fa 5dbd ea4e 423e a6f2 903e
000000b0: e7a7 00be b6f5 aebc 7abc 7f3e de9f 583e
000000c0: 137a a1be cf0f 2cbd 47de 603d fa5d 3bbd
000000d0: 4a59 4a3e 57ad 603e f505 7c3e 3147 973e
000000e0: f1d3 f7be 3f2e 043e b2c8 a43e 2ff3 933e
000000f0: 52f1 0b3d dea8 a63d 2885 a7be 9431 21bd

decoder.3.weight f4 [64, 64]
0.036609717 -0.2953836 -0.28237665 -0.026110964 0.13779575 -0.027868072 -0.046767976 -0.029752793
0.04485881 0.10949146 0.030778965 0.013204469 -0.028266642 0.101279095 0.00840955 0.020805385
-0.0064356416 0.07604249 -0.27498317 0.120308094 -0.23777108 -0.25553226 -0.0057522785 -0.22829284
-0.06377054 -0.2332864 -0.079771705 -0.0962694 0.0064327405 0.12666011 -0.23143318 0.14581689
-0.12449585 -0.18557419 -0.30429366 0.11808336 -0.3646983 -0.04175603 -0.114996746 -0.0030667477
0.005817321 -0.08467471 -0.11942273 0.09557527 0.115111455 -0.19146317 -0.21697374 0.124776416
-0.083164655 -0.13455862 -0.039187197 -0.31402296 0.024560506 -0.2042943 -0.084428355 -0.0032870767
-0.082686715 0.04221359 0.04046303 0.07899229 -0.08525131 0.05322183 0.15438482 -0.10294269
-0.053278916 0.07625335 -0.012385485 -0.21947587 -0.2533097 -0.02037743 0.057700966 0.05684012
-0.19361061 0.015363073 0.07261548 -0.21926467 -0.01704561 -0.22512165 -0.11556351 0.110438235
-0.085748605 -0.052362908 -0.0118567245 -0.33810824 0.036519606 -0.022985056 -0.26606295 0.011107804
-0.037112247 0.21160421 0.014825284 -0.021903025 -0.049713384 -0.294236 -0.016760765 0.07059817
0.04583422 -0.027430996 0.057592038 -0.17270274 0.10003086 0.07430363 -0.18485868 -0.03830085
-0.21156411 -0.089759246 -0.041245643 0.022124425 -0.047956478 0.044920042 0.1130448 -0.07108293
-0.08384956 0.11658547 -0.07813797 0.15150036 0.041978143 0.011653568 -0.020559622 0.059129644
-0.06744361 -0.15996401 -0.022340873 -0.10873077 0.009017227 -0.2645722 -0.02802232 0.061156094
-0.04118222 -0.28189948 -0.23105864 0.16597494 -0.1311783 -0.08139434 -0.09548783 -0.16106908
0.006743871 -0.1352672 0.06636437 0.049279395 0.16184483 0.020837953 -0.13389254 0.061493773
0.08293606 0.12464331 -0.15455376 0.019487744 -0.04161657 -0.41705912 0.12355271 -0.20268837
0.032246754 -0.17161995 -0.2999894 -0.15419222 -0.025371904 -0.006763042 -0.12149132 0.09872605
-0.15943839 -0.21013792 -0.18904592 -0.0920115 -0.28292778 -0.064978115 -0.1398308 0.10946418
0.14542632 -0.2845273 -0.15889199 0.08393623 0.096211776 -0.5219835 -0.28429833 -0.04292151
-0.1892708 0.018219154 -0.03355824 -0.50446004 0.00054333906 -0.15813115 -0.04542141 0.015015796
0.07408272 0.084549956 0.044622075 0.113512635 -0.17145686 0.1368386 0.06617927 -0.019106386
0.15724283 0.0025076212 0.036368802 -0.2751865 -0.009051145 0.041435387 0.093839414 0.011962865
-0.016178273 0.021668531 0.1559085 0.049162604 -0.1182336 0.049660325 -0.2591367 0.0196525
-0.026642624 0.10130546 0.04991387 -0.54659986 0.01544457 -0.11039049 -0.012706715 -0.09877165
0.033830702 -0.0077239745 -0.09040037 -0.056464795 -0.0336366 -0.06707103 0.1136109 0.007693085
0.06877209 -0.022434268 0.09106989 0.029142583 -0.041003454 0.013989459 -0.048243012 0.01442442
-0.29397506 -0.17336847 -0.038135678 -0.06317838 -0.049465872 -0.09370235 -0.15627226 -0.02525744
0.12540796 0.04994013 0.025938444 0.20279542 -0.029710019 0.10253382 0.023735205 -0.2767129
-0.08980452 0.025793532 -0.33395824 -0.380643 0.10546159 0.045145877 0.059185784 0.055986825
00000000: 12f4 153d 853c 97be ac93 90be a9e6 d5bc
00000010: 541a 0d3e 954b e4bc c78f 3fbd 21bc f3bc
00000020: dfbd 373d 0f3d e03d 2b24 fc3c 8f57 583c
00000030: 728f e7bc 6a6b cf3d 36c8 093c 0e70 aa3c
00000040: 13e2 d2bb 2abc 9b3d 98ca 8cbe 1764 f63d
00000050: 437a 73be 20d5 82be 9c7d bcbb 99c5 69be
00000060: 219a 82bd a1e2 6ebe 595f a3bd e428 c5bd
00000070: bdc9 d23b 30b3 013e d2fc 6cbe 0651 153e
00000080: aef7 febd 2907 3ebe 61cc 9bbe b0d5 f13d
00000090: bcb9 babe 5f08 2bbd 6a83 ebbd 7dfb 48bb
000000a0: 3a9f be3b ef69 adbd e793 f4bd f8bc c33d
000000b0: 8ebf eb3d ec0e 44be 5d2e 5ebe c78a ff3d
000000c0: 3b52 aabd bcc9 09be c182 20bd 9ec7 a0be
000000d0: 1d33 c93c 8632 51be c6e8 acbd ff6b 57bb
000000e0: a757 a9bd 28e8 2c3d 90bc 253d b6c6 a13d
000000f0: 3d98 aebd 22ff 593d 0e17 1e3e 9ed3 d2bd
00000100: fe3a 5abd b72a 9c3d 7dec 4abc 48be 60be
00000110: cfb1 81be 91ee a6bc d957 6c3d 30d1 683d
00000120: dc41 46be 66b5 7b3c 6db7 943d eb86 60be
00000130: 3ca3 8bbc 4a86 66be 90ac ecbd 712d e23d
00000140: f79c afbd 7d7a 56bd b542 42bc 861c adbe
00000150: 9595 153d 284b bcbc 6739 88be 82fd 353c
00000160: 0303 18bd c6ae 583e bfe5 723c f96d b3bc
00000170: 43a0 4bbd 1aa6 96be df4d 89bc c695 903d
00000180: aabc 3b3d f8b6 e0bc a1e5 6b3d fdd8 30be
00000190: fbdc cc3d 802c 983d 984b 3dbe 5ae1 1cbd
000001a0: 43a4 58be b2d3 b7bd 31f1 28bd 483e b53c
000001b0: 036e 44bd 14fe 373d 0884 e73d ed93 91bd
000001c0: 51b9 abbd 5dc4 ee3d cd06 a0bd e922 1b3e
000001d0: 46f1 2b3d 9bee 3e3c a76c a8bc ed31 723d
000001e0: e01f 8abd 9bcd 23be 3504 b7bc 3dae debd
000001f0: febc 133c 0276 87be 108f e5bc d07e 7a3d
00000200: b0ae 28bd 2155 90be a39a 6cbe 56f5 293e
00000210: 9b53 06be 13b2 a6bd 208f c3bd 4bef 24be
00000220: b1fb dc3b 7c83 0abe 0bea 873d 31d9 493d
00000230: a7ba 253e 5bb4 aa3c 201b 09be e5e0 7b3d
00000240: 62da a93d fe44 ff3d 5743 1ebe c3a4 9f3c
00000250: 2376 2abd c688 d5be 3409 fd3d 8a8d 4fbe
00000260: 2c15 043d 24bd 2fbe 3698 99be 91e4 1dbe
00000270: bdd8 cfbc 829c ddbb 71d0 f8bd e230 ca3d
00000280: d143 23be 652e 57be 4195 41be 8670 bcbd
00000290: e9db 90be 3f13 85bd ce2f 0fbe c22e e03d
000002a0: a3ea 143e 90ad 91be 95b4 22be c2e6 ab3d
000002b0: ae0a c53d b6a0 05bf 8d8f 91be 77ce 2fbd
000002c0: 34d0 41be 5640 953c 5d74 09bd 4b24 01bf
000002d0: de6e 0e3a 22ed 21be cd0b 3abd d004 763c
000002e0: aeb8 973d 8728 ad3d a3c5 363d 5079 e83d
000002f0: 6392 2fbe 6b1f 0c3e ff88 873d ff84 9cbc
00000300: 4404 213e e756 243b 74f7 143d 3fe5 8cbe
00000310: 414b 14bc 27b8 293d e12e c03d e4ff 433c
00000320: 4c88 84bc 3482 b13c 7aa6 1f3e ba5e 493d
00000330: 7524 f2bd a068 4b3d 91ad 84be 48fe a03c
00000340: a241 dabc 3d79 cf3d 7c72 4c3d f8ed 0bbf
00000350: 390b 7d3c 6914 e2bd d32f 50bc ca48 cabd
00000360: 1092 0a3d 6519 fdbb d423 b9bd a147 67bd
00000370: 88c6 09bd 895c 89bd d5ac e83d 4616 fc3b
00000380: 62d8 8c3d 12c8 b7bc da82 ba3d 6dbc ee3c
00000390: 3df3 27bd 0b34 653c 779a 45bd 6754 6c3c
000003a0: e683 96be 8187 31be 2834 1cbd ab63 81bd
000003b0: ba9c 4abd 05e7 bfbd d605 20be b1e8 cebc
000003c0: f26a 003e 068e 4c3d dc7c d43c 9aa9 4f3e
000003d0: 6d62 f3bc 40fd d13d 5570 c23c 50ad 8dbe
000003e0: 6feb b7bd f54c d33c 93fc aabe a4e3 c2be
000003f0: 3ffc d73d e2ea 383d cb6c 723d 7152 653d

decoder.3.bias f4 [64]
0.28352863 0.3009857 0.06252474 0.059980333 0.42221195 0.12117169 0.34757778 0.15888256
0.35786602 0.29588628 0.25877523 0.22910625 0.153466 0.17959027 0.24724878 0.39732647
0.37128443 0.0055311113 0.19895983 0.24790892 0.46063057 -0.17901807 0.04546276 0.35862952
0.07688807 0.11411783 -0.15477838 0.030960001 0.34277812 0.39527985 0.16674764 0.3325418
0.20902245 0.2933194 0.22367734 0.11220346 0.29479632 0.14503509 0.38835317 0.20851162
0.13974611 -0.11302729 0.1734589 0.45582107 0.23815295 -0.3709573 0.30164126 0.21732941
-0.15578273 0.1681805 0.2840997 0.20157868 0.049428206 0.13350125 0.3029785 0.12748809
0.16965915 -0.104795836 0.31617704 0.37245637 0.10010187 0.12766805 0.3131255 0.10075117
00000000: aa2a 913e cc1a 9a3e f90c 803d f0ad 753d
00000010: 2a2c d83e dd28 f83d b7f5 b13e 1cb2 223e
00000020: 373a b73e 687e 973e 307e 843e d49a 6a3e
00000030: 3126 1d3e 83e6 373e c92e 7d3e 606e cb3e
00000040: fe18 be3e 533e b53b 20bc 4b3e d6db 7d3e
00000050: c5d7 eb3e 8350 37be 2937 3a3d 4a9e b73e
00000060: 7e77 9d3d 9cb6 e93d 397e 1ebe d49f fd3c
00000070: 9d80 af3e 1f62 ca3e e5bf 2a3e eb42 aa3e
00000080: fb09 563e f62d 963e ac0b 653e edca e53d
00000090: 8bef 963e 1484 143e 3ad6 c63e 1284 553e
000000a0: 9b19 0f3e da7a e7bd 369f 313e 6161 e93e
000000b0: 5ede 733e 1dee bdbe b970 9a3e 9a8b 5e3e
000000c0: 8285 1fbe 8237 2c3e 8475 913e a46a 4e3e
000000d0: 3b75 4a3d 8db4 083e ff1f 9b3e 3d8c 023e
000000e0: 21bb 2d3e 339f d6bd f5e1 a13e 9ab2 be3e
000000f0: 3602 cd3d 6abb 023e fc51 a03e a156 ce3d
